analysis/data/embeddings/cleaned_300_pku-safe-30k-gemma-2-9b_no_ann.json_clustered/cleaned_300_pku-safe-30k-gemma-2-9b_no_ann.json_clustered_relation_embeddings.pt (torch, 272250 bytes, 1 tensors)

weight f4 [1053, 64]
1.7512182 0.10879594 1.9867471 -1.8950154 -1.2862204 -0.35969657 -2.1616695 -0.82008845
1.3333794 -1.7642819 2.6238828 -0.5853715 1.7712629 -0.5970382 -0.82311314 -0.8955292
-0.82094187 0.8838019 -1.4887437 -1.0425519 1.0283631 -0.283986 -0.48140454 -2.1154346
0.6919981 0.4213027 -1.6351577 1.1237106 1.7268748 0.91799945 -1.6358509 -0.18625514
-1.8748182 0.51729023 -0.10626261 -2.6817377 0.8006686 -0.6261567 -1.436564 0.64346623
-0.4839853 0.743974 0.47392818 0.3375401 -1.5333668 -0.3067891 -1.1889665 1.2215087
-1.4533105 -1.3858407 2.005835 -0.40340185 -1.2207016 0.42494392 2.1743329 -0.015187562
-1.0538458 0.035409726 -1.3456652 1.1650175 0.6349269 1.206599 0.57737225 0.6771165
-3.2520518 -1.874954 -0.8747721 -2.5988328 1.101959 2.2162857 -2.0023518 -2.3046508
-3.1681635 -3.204124 3.1121233 6.371037 -3.3405576 -1.4220278 1.1667238 -0.57498866
5.560141 -0.5087191 4.1285777 -3.1962893 -0.9331451 -0.5938846 -0.9003696 -2.7687798
3.9264083 -3.8743064 -2.926088 -2.8441765 -2.7086945 -2.5506372 -1.7461909 -3.781197
-4.9614253 0.15769422 -2.7295666 1.3792149 -0.48964447 0.37971264 0.10644121 -2.9793525
0.15731072 0.91066104 4.1588254 1.6961473 0.7561049 -3.7955847 1.9388684 1.5654502
-3.2202823 0.10206498 0.7286846 1.771521 -3.807341 4.482089 -2.5384314 2.7028522
1.2561941 0.26535317 0.44955745 2.1358805 -2.451682 1.4206109 -2.3700173 0.23609206
0.36405683 -1.0491555 -0.6261814 1.2885704 -1.3429983 -1.9856737 -1.1847634 0.2631704
-0.1272507 1.3447043 -1.4880137 -0.69468355 0.41387978 -0.4418292 0.1810572 -1.781995
-0.14021634 -0.8707653 0.11039085 1.899448 -0.513899 1.7497284 -0.18803872 -0.50289494
-1.5836513 1.5173606 0.3032513 -1.1278355 2.90774 0.054498937 1.5875593 -0.91576344
-2.6770566 0.18203764 1.6457183 1.6959493 -1.0889199 -0.4280485 0.85990244 -0.31093267
-0.54546016 0.52285826 0.25986922 -3.4732063 0.5293092 1.0013419 -3.156499 -1.311014
-2.8380456 0.19751556 -0.92172056 1.0355878 -2.4129145 -0.84391844 -1.2508216 -2.275408
-1.3371906 -0.49274972 0.11897073 -0.6620801 1.3373555 2.5211613 -0.235561 -0.23492669
2.3878684 1.7454929 0.99538726 1.4642065 -1.6520394 0.13704972 -2.3249211 -2.1656723
0.043738607 1.0571287 0.6865256 0.39760187 -1.7366349 -2.329628 -0.55803734 -1.5701724
1.4913962 -3.0529497 -1.8621956 1.7846951 0.205015 -0.674027 -2.826495 -1.9269542
1.2007545 2.5810673 1.1111803 -2.1996858 1.3869448 0.033298764 -2.018228 -1.6139956
0.77026516 -1.8661474 -0.68917215 -1.006388 1.0585773 3.1180394 -2.5646517 -1.3280351
2.306157 0.38227707 -0.09368036 0.2386221 -0.08789305 -0.45498133 0.21870568 0.5222282
0.28255847 -3.116224 0.40892237 1.445152 -3.6604972 1.0848951 1.5534124 -1.1173822
-1.6864232 0.038434796 1.8144172 1.7881494 -2.5543478 1.0275629 1.6937039 1.3727419
00000000: eb27 e03f 68d0 de3d bb4d fe3f dd8f f2bf
00000010: dfa2 a4bf 262a b8be cb58 0ac0 51f1 51bf
00000020: 2dac aa3f fdd3 e1bf b2ed 2740 e8da 15bf
00000030: beb8 e23f 7fd7 18bf 8bb7 52bf 6741 65bf
00000040: 3f29 52bf d740 623f 278f bebf 5772 85bf
00000050: 67a1 833f 9d66 91be a87a f6be 4863 07c0
00000060: ca26 313f fdb4 d73e d94c d1bf c0d5 8f3f
00000070: 3c0a dd3f 0302 6b3f 9063 d1bf abb9 3ebe
00000080: 0bfa efbf 226d 043f 36a0 d9bd 97a1 2bc0
00000090: 9ef8 4c3f ce4b 20bf 54e1 b7bf 34ba 243f
000000a0: eccc f7be 1475 3e3f b7a6 f23e 0ed2 ac3e
000000b0: 5d45 c4bf 7613 9dbe 0e30 98bf 665a 9c3f
000000c0: 1406 babf 3a63 b1bf 9a5f 0040 b08a cebe
000000d0: f33f 9cbf 4092 d93e 4528 0b40 41d5 78bc
000000e0: 6be4 86bf ca09 113d c23e acbf 4b1f 953f
000000f0: 928a 223f d671 9a3f abce 133f 8257 2d3f
00000100: 9e21 50c0 7efe efbf 10f1 5fbf 4753 26c0
00000110: fe0c 8d3f a0d7 0d40 8826 00c0 667f 13c0
00000120: 31c3 4ac0 5e10 4dc0 072d 4740 89df cb40
00000130: b2cb 55c0 0205 b6bf 3557 953f 7532 13bf
00000140: adec b140 6a3b 02bf 4f1d 8440 0190 4cc0
00000150: 99e2 6ebf d208 18bf 9f7e 66bf b033 31c0
00000160: 464a 7b40 a3f4 77c0 0745 3bc0 fd06 36c0
00000170: 405b 2dc0 a43d 23c0 2f83 dfbf 22ff 71c0
00000180: ffc3 9ec0 987a 213e 38b1 2ec0 1d8a b03f
00000190: aeb2 fabe b269 c23e d9fd d93d b6ad 3ec0
000001a0: 1016 213e 1521 693f 1915 8540 5b1b d93f
000001b0: 1790 413f dcea 72c0 d72c f83f ac60 c83f
000001c0: 1b19 4ec0 7207 d13d 138b 3a3f 33c1 e23f
000001d0: 7aab 73c0 466d 8f40 a975 22c0 88fb 2c40
000001e0: f8ca a03f 5fdc 873e 652c e63e 44b2 0840
000001f0: 5ce8 1cc0 94d6 b53f 5dae 17c0 1ec2 713e
00000200: a865 ba3e ba4a 86bf 6d4d 20bf e0ef a43f
00000210: 5ee7 abbf 8e2a febf 54a6 97bf 45be 863e
00000220: 024e 02be 451f ac3f 3c77 bebf c8d6 31bf
00000230: 0de8 d33e 7037 e2be 0f67 393e 6a18 e4bf
00000240: df94 0fbe 7aea 5ebf 9914 e23d 1d21 f33f
00000250: e38e 03bf 1af7 df3f 398d 40be b9bd 00bf
00000260: 16b5 cabf df38 c23f c143 9b3e ea5c 90bf
00000270: 6a18 3a40 473a 5f3d 2535 cb3f 796f 6abf
00000280: e554 2bc0 1368 3a3e e6a6 d23f de14 d93f
00000290: ba61 8bbf 2c29 dbbe 9122 5c3f 9132 9fbe
000002a0: 47a3 0bbf 0ada 053f 940d 853e 0349 5ec0
000002b0: cf80 073f f92b 803f 1404 4ac0 4fcf a7bf
000002c0: 8aa2 35c0 8541 4a3e e1f5 6bbf 248e 843f
000002d0: 316d 1ac0 0a0b 58bf ec1a a0bf 49a0 11c0
000002e0: 1029 abbf b149 fcbe eda6 f33d 157e 29bf
000002f0: 772e ab3f b55a 2140 e736 71be 9f90 70be
00000300: d6d2 1840 506c df3f b3d1 7e3f 1e6b bb3f
00000310: 0776 d3bf c356 0c3e 82cb 14c0 609a 0ac0
00000320: 4127 333d fe4f 873f 24c0 2f3f 7992 cb3e
00000330: 0d4a debf a018 15c0 89db 0ebf 69fb c8bf
00000340: 12e6 be3f 8763 43c0 6d5c eebf e470 e43f
00000350: 74ef 513e 098d 2cbf 4be5 34c0 6fa6 f6bf
00000360: 53b2 993f 3530 2540 283b 8e3f a7c7 0cc0
00000370: 6887 b13f 4964 083d a62a 01c0 6897 cebf
00000380: 1930 453f ebdd eebf 966d 30bf 52d1 80bf
00000390: 767f 873f f58d 4740 4123 24c0 0efd a9bf
000003a0: 1498 1340 d2b9 c33e 7ddb bfbd 5a59 743e
000003b0: 4501 b4bd 50f3 e8be 62f4 5f3e bfb0 053f
000003c0: 81ab 903e 3770 47c0 465e d13e befa b83f
000003d0: 9645 6ac0 d8dd 8a3f 38d6 c63f 6106 8fbf
000003e0: b7dc d7bf ce6d 1d3d d33e e83f 14e2 e43f
000003f0: 6f7a 23c0 2e87 833f 4acb d83f 02b6 af3f
