analysis/data/embeddings/cleaned_300_pku-safe-30k-gemma-2-9b_no_ann.json_clustered/cleaned_300_pku-safe-30k-gemma-2-9b_no_ann.json_clustered_entity_embeddings.pt (torch, 625008 bytes, 1 tensors)

weight f4 [2431, 64]
00000000: 3946 ecbf 2c3c 0e3f b9c0 5740 da91 8cbe
00000010: 42ba 973f 1306 c83f 2e74 723f 306f ad3f
00000020: d2e7 2a3f baf4 e4bf a58a f73e 225b 583f
00000030: 7fec 0a40 8dd7 023f e2a5 d7bf 6024 2b40
00000040: 0e9a fb3f 28bc 0cc0 0635 08c0 55bb 36c0
00000050: ee48 aebf a602 70c0 17bf d1be 312e 403f
00000060: 749d a4bf 06e7 093d 1b13 87bf 7641 d3bf
00000070: dba2 c9bf baad ce3e 20ce bc3e 0b73 5d3e
00000080: 98d7 0140 1eba 1abf d007 82be db56 41bf
00000090: 9b1a c3bf ef5d 20c0 0741 2bc0 1644 1f40
000000a0: a0c0 a0bf 74b5 42bf 96aa 1e40 8a8b b3bf
000000b0: 8a93 ef3e 0654 483f 7aeb 0fc0 420b 3e3e
000000c0: 50ea 0840 b7e6 83bf 2f0e 3d3f a6b8 353f
000000d0: d80a f43f 55b5 c6bf ef57 6fbf 61bd 0240
000000e0: 52cc 5cbf 0cef 1d40 9836 c6bd fb4e afbf
000000f0: 62d8 b0be 6937 363f 58ee 6d40 e308 2cc0
00000100: 7566 b93f ddb9 d33d bcc1 073e 28f3 0f3e
00000110: c708 1f40 20be 3ac0 3714 433f ebde a4bf
00000120: e7a1 ab3f e7eb 5cc0 ee22 1e3f a48c e5be
00000130: ff3b 81c0 a6ae 3fc0 6711 dcbe 6c3c b23e
00000140: ac10 2bc0 0468 ccbe 1920 ce3f 3367 373f
00000150: c98a b2bf 699c 10c0 f8b7 c6bf 0a1e d03f
00000160: ab87 05be 518e fd3f 6d85 c73f db54 01c0
00000170: 91a9 febf e71e 16be f05a 5fbf aa38 dabe
00000180: 7959 7b3f c8dc 293e 5022 8840 66bc 2fbf
00000190: cf79 21bd 800b a0bf 651b 06c0 8eb9 b03f
000001a0: 99fe 9cbf 8e4d a23f 795b 1e3f 4576 0240
000001b0: 6bf4 ca3f f46d 723f d056 babf 2edc b23f
000001c0: 0c82 01c0 39cc 913d c785 3a3d 0cb2 a63f
000001d0: 655b f93e ba91 5cc0 1712 123e e6f2 6b3f
000001e0: 44df 833e 8090 afbf f981 29bf bb30 da3e
000001f0: c202 663f 34ab a23f a8c4 82bf b3b5 6dbf
00000200: fc42 303f d70f f23f c10d 84c0 8fc1 26be
00000210: 5057 83c0 d735 7ebf 5c64 b6bf f543 2740
00000220: 789a 08c0 3063 21c0 c9e8 0740 de46 04be
00000230: 1e75 27bf 64f2 40bf 7af4 47be 2d53 01c0
00000240: af70 dd3e c572 b6be 60aa 53bf 3f15 c6bf
00000250: 551b 02c0 598c 3940 5c64 a63f d7b6 20c0
00000260: 30cd 43c0 92d5 3ebf 12ec 0bbe 448f a03e
00000270: 44b9 603e 737a 11bf a91e 81bf 39b8 14c0
00000280: 54d3 11c0 16c6 29c0 77b9 1dc0 06cc 093f
00000290: b5f9 893f 76b2 c13f 2075 edbf 01fe 1dc0
000002a0: 0e93 25c0 e618 e13f f7eb 26c0 1cf6 2640
000002b0: a6db 10c0 02cf 1d40 e2af 823f 5243 0540
000002c0: 5a71 ffbf b0c5 25c0 3455 e93d 14b6 c43f
000002d0: 5b26 87bf 0510 e53f 1b2d 86c0 ca9b f73f
000002e0: 90d5 2840 82e7 59c0 a2c3 a5bf e126 8ac0
000002f0: 0676 33bf c08e 4240 a221 c4bf e9f4 533f
00000300: 8534 5240 88bb 0d40 8278 2940 9b70 2cbd
00000310: efa1 3dc0 2f05 1a40 e258 11c0 ee9d 993f
00000320: 55e8 273e 9353 fc3e 721a 04c0 d220 fdbf
00000330: f1a3 3c40 3000 0ac0 09fd 42c0 198d 12bf
00000340: d368 10c0 60ff c13d 707c 773f 640a 20bf
00000350: 047e a7be a924 46bf cfda 7ac0 52f5 2e3e
00000360: dfe2 3c40 2773 b83f 92c8 2040 5074 b03f
00000370: 123a 663f da8f d1bf 2283 8c3f 018d 8c40
00000380: 4dab 9fbf 87ce 3bbf 64ef 22bd 5f67 20bf
00000390: 9e3b 1240 35ed 503f ce36 cb3f f7f7 193e
000003a0: bd6a 14bf 8a3b 77bf 69e3 3b3f b19d 983f
000003b0: 546f aabf 67dd f4be 044b 953f c79c 8cbf
000003c0: d544 e8bf c89c db3f 9ffc 02c0 38a3 cdbf
000003d0: 0c4c f73e 5108 57c0 1f94 2ac0 4685 1040
000003e0: 4822 3dbf 7585 473f d48c 013f dfc1 7abf
000003f0: 1f4f 50be 5158 f4be cfe7 733f 5ded fb3e
-1.845893 0.55560565 3.3711379 -0.27455026 1.1853716 1.5626854 0.94708526 1.3549557
0.6675998 -1.7887185 0.48347965 0.8451406 2.1706846 0.51110154 -1.6847498 2.6740952
1.9656389 -2.1989841 -2.1282363 -2.8551838 -1.3616006 -3.7501616 -0.40966102 0.7507048
-1.2860551 0.033667587 -1.0552706 -1.6504352 -1.5752825 0.40366918 0.3687601 0.21625917
2.0287838 -0.6044024 -0.25396585 -0.75523156 -1.5242494 -2.5057333 -2.675844 2.4885306
-1.2558784 -0.76058125 2.4791617 -1.4026959 0.4679225 0.7825321 -2.2487473 0.18558982
2.1393013 -1.0304784 0.7384977 0.70984876 1.9065809 -1.5524088 -0.9349355 2.0428088
-0.8624927 2.4677153 -0.09678382 -1.3695978 -0.34540087 0.711783 3.7176723 -2.6880424
1.4484392 0.10338185 0.13257498 0.140576 2.4849107 -2.9178543 0.7620272 -1.2880529
1.3408784 -3.4518983 0.6177205 -0.44833863 -4.0385737 -2.9950347 -0.42982027 0.34811723
-2.6728926 -0.39923108 1.6103545 0.71641845 -1.3948604 -2.2595465 -1.5524893 1.6259167
-0.13040034 1.9809057 1.5587593 -2.0208042 -1.9895498 -0.14660226 -0.87248135 -0.42621356
0.981834 0.16588128 4.2541885 -0.6864685 -0.039422806 -1.250351 -2.095422 1.3806627
-1.2265197 1.2679918 0.61858326 2.0384686 1.585584 0.94699025 -1.4557743 1.3973444
-2.0235624 0.071190305 0.045537736 1.3023086 0.4870254 -3.4463944 0.14264713 0.9216751
0.25756276 -1.3715973 -0.6621395 0.42615303 0.8984796 1.2708497 -1.0216265 -0.92855376
0.6885221 1.8911084 -4.126679 -0.16284774 -4.1044083 -0.99300903 -1.4249377 2.6135228
-2.134428 -2.521679 2.123583 -0.12917659 -0.6541308 -0.7536986 -0.19526854 -2.0207016
0.43250033 -0.35634437 -0.82681847 -1.5475234 -2.0329182 2.8991911 1.2999377 -2.5111597
-3.0593987 -0.7454463 -0.13664272 0.31359303 0.21945673 -0.5682747 -1.0087482 -2.323744
-2.2785234 -2.6527152 -2.4644449 0.5382694 1.077933 1.5132587 -1.8551369 -2.4686282
-2.5871005 1.7585723 -2.6081522 2.6087713 -2.2634063 2.4657598 1.0209925 2.082234
-1.9956467 -2.590191 0.11393204 1.5368066 -1.055858 1.7895514 -4.193006 1.9344418
2.6380348 -3.404755 -1.2950327 -4.317246 -0.70101964 3.0399628 -1.5322764 0.8279558
3.2844555 2.214571 2.6479802 -0.042099576 -2.9630086 2.4065664 -2.27105 1.2001321
0.16397221 0.49282512 -2.064114 -1.9775641 2.9475062 -2.1562614 -3.046694 -0.5724655
-2.256398 0.09472537 0.9667425 -0.62515855 -0.3271333 -0.7739969 -3.919605 0.1708577
2.951347 1.4410142 2.5122418 1.3785496 0.8993236 -1.6372025 1.0977519 4.3922124
-1.2474152 -0.7336201 -0.039779082 -0.6265773 2.2848887 0.8161195 1.58761 0.15035997
-0.5797537 -0.96575224 0.73393875 1.1923124 -1.3315225 -0.47825167 1.1663518 -1.0985345
-1.8146006 1.7157221 -2.0466688 -1.6065435 0.48300207 -3.3598826 -2.6652906 2.2581344
-0.73880434 0.77938014 0.5060551 -0.97952074 -0.20342682 -0.4772363 0.95275587 0.4920453
