analysis/data/embeddings/cleaned_300_pku-safe-30k-test-gemma-2-9b-it.json_clustered/cleaned_300_pku-safe-30k-test-gemma-2-9b-it.json_clustered_entity_embeddings.pt (torch, 545653 bytes, 1 tensors)

weight f4 [2121, 64]
-1.7195452 3.9213552 -3.1903896 1.3841821 1.1392483 -4.0870643 1.4800981 0.64365596
1.1705849 0.45660722 -1.5515156 0.5638666 3.9389768 2.571776 -2.4020782 0.4216047
0.7725112 1.4539232 2.0598717 1.2450392 -1.2940187 -2.3753798 0.77738553 2.734779
3.6330807 -4.0945554 1.7195005 2.0381238 0.5245886 -0.5264867 -2.2404501 2.3256152
2.1882508 1.7214782 -0.83553314 3.5717506 1.9478557 -1.4611094 0.26317203 -0.629423
-1.6214699 -0.8738722 0.04029541 0.24222907 1.4015038 -1.8273854 -1.1728953 -0.5246061
0.48663867 1.7288742 0.14320257 -2.3007689 -2.102458 -2.8973312 2.8946793 2.3688817
-0.3639881 0.44547907 0.7089462 2.1457367 -2.0624604 -0.92815775 1.0253493 2.793891
0.51129663 2.4362533 0.28453952 -1.2991656 3.363743 1.8674989 0.9113488 0.59885037
-0.048112173 3.4993324 -3.2613983 4.4975643 1.5310643 3.0987754 2.081997 -2.6476448
1.2072499 -3.1110353 1.8394073 0.10534224 -0.44370753 -1.8247631 4.390529 0.2515804
2.4897225 -2.2055984 -0.6432676 -1.6669343 0.49434122 -0.92363036 0.79865414 -2.6930578
-1.321437 -5.153968 -0.088500425 -1.7904099 -0.3662562 -0.33110237 1.1579084 -2.862624
-1.3198019 -2.365452 1.2675976 1.3514202 3.4502883 0.8086677 4.1290703 -0.9793794
0.2936803 -0.8098952 -4.241286 0.34300825 -3.09661 2.7204502 2.422546 -2.0652118
0.36917388 0.38269445 3.1652026 -0.098851204 -0.6458027 -0.29257262 0.21969482 -1.9258195
3.9373727 -3.0511959 -3.4611878 2.7995028 1.2400529 1.9762397 -2.3735287 -0.89523035
1.9359194 3.2485416 -1.5306942 -0.78432363 2.3478556 0.52651 -1.2776003 -0.10264013
-2.5842943 1.8531052 3.3143117 -2.6177046 -0.7637489 -0.79569936 2.8569424 -0.076844074
4.014091 0.029288223 -1.6343424 -0.81671005 1.8304555 2.5718014 -0.13380106 -1.3398503
-1.6795198 2.5319984 3.6961174 -0.59742135 -2.005404 -1.5307318 0.11464937 2.8666327
-1.2725914 -2.668839 -0.53868234 2.6247256 1.3912324 2.1609268 -2.0031593 0.87334496
2.4528627 3.4641008 -0.9441345 -2.3130863 -1.8002253 -3.0937583 -1.8567444 0.11505175
-1.1840845 1.382519 -0.039262608 -3.9909937 -0.8868795 3.3194606 -0.805653 2.8843403
-0.659894 -2.2034934 -0.04405006 0.038184427 2.62228 -0.31822085 -0.2324991 0.5020406
-1.1750177 -0.6121265 0.051101923 2.6639776 -3.7241316 -2.0973408 0.6834299 -1.1921966
1.2375182 -2.7088823 2.0164452 -2.4318218 1.0477691 1.8556 0.054132864 0.875144
-1.1995823 -1.6229823 3.0267453 2.2293901 -1.8765618 -0.12406306 -1.8465898 -1.8125153
-4.4056635 1.5051688 -6.107679 -0.24477679 -0.73260385 -0.18017264 -4.8572125 -0.6760135
1.2422032 -0.038470324 2.4595582 3.074609 -0.50648725 3.151194 0.98351276 1.3093542
4.133398 -0.11308828 -4.0083947 2.8195472 3.5630033 -0.94566923 -1.3040535 0.81544596
0.16911668 -1.3576095 1.7032251 -2.779066 -0.61560017 -3.383328 0.33136642 -2.280115
00000000: 0f1a dcbf 7cf7 7a40 582f 4cc0 e12c b13f
00000010: e3d2 913f 3bc9 82c0 db73 bd3f a3c6 243f
00000020: bad5 953f 6cc8 e93e 1098 c6bf 9059 103f
00000030: 3218 7c40 fa97 2440 a6bb 19c0 92dc d73e
00000040: 4bc3 453f 281a ba3f f0d4 0340 725d 9f3f
00000050: 68a2 a5bf 3906 18c0 bd02 473f 9e06 2f40
00000060: 6584 6840 9906 83c0 9818 dc3f 9f70 0240
00000070: 704b 063f d5c7 06bf 8963 0fc0 e1d6 1440
00000080: 4d0c 0c40 6659 dc3f 80e5 55bf 9097 6440
00000090: 5653 f93f a205 bbbf 7cbe 863e de21 21bf
000000a0: 538c cfbf 17b6 5fbf cd0c 253d e60a 783e
000000b0: 7a64 b33f c4e7 e9bf 6f21 96bf 964c 06bf
000000c0: b428 f93e c04b dd3f b2a3 123e cc3f 13c0
000000d0: ac8e 06c0 e06d 39c0 6d42 3940 c29b 1740
000000e0: a65c babe d515 e43e 807d 353f c053 0940
000000f0: 5aff 03c0 bf9b 6dbf a53e 833f 1ccf 3240
00000100: 56e4 023f 93eb 1b40 2aaf 913e 0f4b a6bf
00000110: 9147 5740 340a ef3f 284e 693f 424e 193f
00000120: 4511 45bd 10f5 5f40 c0ba 50c0 0cec 8f40
00000130: eaf9 c33f 5652 4640 703f 0540 0373 29c0
00000140: 2a87 9a3f 341b 47c0 b371 eb3f acbd d73d
00000150: a22d e3be d691 e9bf 377f 8c40 25cf 803e
00000160: 9d57 1f40 8628 0dc0 2fad 24bf 1a5e d5bf
00000170: 4b1a fd3e 0a73 6cbf 9974 4c3f 0f5b 2cc0
00000180: d924 a9bf 4eed a4c0 b63f b5bd 272c e5bf
00000190: ef85 bbbe 4086 a9be 5836 943f 3b35 37c0
000001a0: 45ef a8bf 9163 17c0 a340 a23f 56fb ac3f
000001b0: 86d1 5c40 d904 4f3f 5821 8440 9cb8 7abf
000001c0: 445d 963e 4b55 4fbf 9db8 87c0 c79e af3e
000001d0: dc2e 46c0 db1b 2e40 fe0a 1b40 6e2c 04c0
000001e0: 5c04 bd3e 87f0 c33e ae92 4a40 8072 cabd
000001f0: 5353 25bf 14cc 95be aef7 603e 4181 f6bf
00000200: eafd 7b40 cb46 43c0 1a84 5dc0 0e2b 3340
00000210: 0eba 9e3f 6cf5 fc3f e5e7 17c0 d12d 65bf
00000220: 35cc f73f 1be8 4f40 caed c3bf 6fc9 48bf
00000230: 4443 1640 5cc9 063f 6888 a3bf fd34 d2bd
00000240: 1465 25c0 8d32 ed3f af1d 5440 7988 27c0
00000250: 0c85 43bf f4b2 4bbf 25d8 3640 6d60 9dbd
00000260: 6f73 8040 dbed ef3c 2232 d1bf e913 51bf
00000270: 5e4c ea3f 6598 2440 2503 09be 3780 abbf
00000280: 81fa d6bf 430c 2240 308d 6c40 9bf0 18bf
00000290: 8a58 00c0 05ef c3bf 4acd ea3d e976 3740
000002a0: 46e4 a2bf 42ce 2ac0 16e7 09bf 81fb 2740
000002b0: e713 b23f a04c 0a40 c333 00c0 8993 5f3f
000002c0: b4fb 1c40 d4b3 5d40 ccb2 71bf 9b09 14c0
000002d0: c86d e6bf 2300 46c0 cda9 edbf 40a0 eb3d
000002e0: 1590 97bf 62f6 b03f d4d1 20bd 716c 7fc0
000002f0: 890a 63bf 0b72 5440 463f 4ebf 0899 3840
00000300: d0ee 28bf 0906 0dc0 d66d 34bd 4667 1c3d
00000310: 6fd3 2740 d8ed a2be 3e14 6ebe bc85 003f
00000320: fb66 96bf 53b4 1cbf 4050 513d 9c7e 2a40
00000330: 2c58 6ec0 d53a 06c0 43f5 2e3f e699 98bf
00000340: ff66 9e3f 545e 2dc0 700d 0140 f8a2 1bc0
00000350: 4c1d 863f 4d84 ed3f 6cba 5d3d 7009 603f
00000360: ea8b 99bf e2bd cfbf 32b6 4140 54ae 0e40
00000370: 2d33 f0bf c614 febd 0e5d ecbf 8000 e8bf
00000380: 32fb 8cc0 5fa9 c03f 1b72 c3c0 c4a6 7abe
00000390: ed8b 3bbf 2d7f 38be 496e 9bc0 390f 2dbf
000003a0: 8400 9f3f 0f93 1dbd 6769 1d40 65c6 4440
000003b0: 26a9 01bf 2aad 4940 7ec7 7b3f eb98 a73f
000003c0: cc44 8440 d49a e7bd c544 80c0 7673 3440
000003d0: 3f08 6440 6117 72bf 3aeb a6bf 11c1 503f
000003e0: ec2c 2d3e 26c6 adbf 4803 da3f 38dc 31c0
000003f0: f997 1dbf 7288 58c0 dca8 a93e 67ed 11c0
