analysis/data/embeddings/cleaned_300_pku-safe-30k-test-gemma-2-9b-it.json_clustered/cleaned_300_pku-safe-30k-test-gemma-2-9b-it.json_clustered_relation_embeddings.pt (torch, 237183 bytes, 1 tensors)

weight f4 [916, 64]
0	0xc02ce1ab	-2.7012737
1	0x3f946865	1.1594359
2	0xc003e92a	-2.0611062
3	0x3fa1b128	1.2632189
4	0xbedaf2d8	-0.427634
5	0x3f8ade70	1.0849133
6	0x4016f789	2.3588583
7	0xbfc6f9e6	-1.5545013
8	0x3f55a4ec	0.83454776
9	0x402737b3	2.6127746
10	0x404f2409	3.2365744
11	0x40357697	2.8353631
12	0x3f9ddf54	1.2333779
13	0xbf1c4a5d	-0.6105097
14	0x3f83324f	1.0249728
15	0xbf971368	-1.1802797
16	0xc062b26a	-3.5421395
17	0xc01fca93	-2.4967391
18	0x3eea7f41	0.45800212
19	0xbf57429d	-0.8408602
20	0x3ff3c571	1.9044629
21	0x4086fdb7	4.218471
22	0xc069b810	-3.6518593
23	0xbed211c5	-0.41029182
24	0x4035c807	2.8403337
25	0x4058fc95	3.3904164
26	0xc01dd50f	-2.466129
27	0x3f842f29	1.0326892
28	0xbf952f14	-1.1654992
29	0x3f950f52	1.16453
30	0xc0199e74	-2.4002962
31	0xbf0e5bd2	-0.55608857
32	0x3ef3fa6e	0.47652
33	0x402bf9f3	2.6871307
34	0xc00ec6a6	-2.2308745
35	0xbf34ceae	-0.7062787
36	0x405bc9f2	3.4342008
37	0xbf5955e0	-0.8489666
38	0x3edb4997	0.42829582
39	0xbfc4dd5e	-1.5380056
40	0x3fc40a44	1.5315633
41	0xc02e083a	-2.719252
42	0xc05db9e2	-3.4644704
43	0x3fd2f512	1.648104
44	0x3fb3251e	1.3995702
45	0x3ff5cf07	1.9203805
46	0x401ef8b9	2.4839308
47	0xbdba6ecf	-0.09103166
48	0x4000da02	2.0133061
49	0xc01914cc	-2.3918943
50	0xbf7c8ab8	-0.9864917
51	0x40815cce	4.0425787
52	0x3fca22b3	1.5791839
53	0xc033990a	-2.8062158
54	0xbebc368b	-0.36760363
55	0xbfd270cf	-1.6440676
56	0x3fd56b9d	1.6673466
57	0xbd890a0d	-0.0669137
58	0xbf3abf21	-0.7294789
59	0xbf487171	-0.782981
60	0xbf8d3b38	-1.1033697
61	0xbddc6fa6	-0.10763483
62	0x3ecba0a9	0.3977101
63	0xbcc593e0	-0.024118364
64	0x3fa1f928	1.2654161
65	0x3ee6cd95	0.45078722
66	0xbfbffd74	-1.4999223
67	0xbfde6b91	-1.7376577
68	0xbf86817d	-1.0508267
69	0x3c47dca2	0.012198599
70	0xbf4c440e	-0.79791343
71	0x4078f9f5	3.8902562
72	0x3f97a07a	1.1845849
73	0xbf627c8b	-0.8847129
74	0xbf5e41ad	-0.86818963
75	0xbfb6d3c7	-1.4283379
76	0xbfda4d45	-1.7054831
77	0xc008bbb1	-2.1364558
78	0x3fc7a539	1.5597297
79	0x400c3ecb	2.1913326
80	0x3e8096d9	0.25115088
81	0xbfd4ba32	-1.6619322
82	0x40352415	2.8303273
83	0xc0227d24	-2.538888
84	0xc036943a	-2.852797
85	0xbeba2203	-0.36354074
86	0xbf9b8897	-1.2151059
87	0xc003cd5b	-2.059409
88	0xbf82265f	-1.016796
89	0xc01cbe6e	-2.449123
90	0xbfbc0a15	-1.4690577
91	0x4020d0f4	2.5127535
92	0xc0074d84	-2.1141062
93	0x3e8bc0ab	0.27295431
94	0x3fbf2f12	1.493624
95	0x3f5f9d55	0.87349445
96	0x3f5747ac	0.8409374
97	0x3fc57cd8	1.5428724
98	0x3f62e8c9	0.8863645
99	0xbfcefee7	-1.617154
100	0x400613b0	2.0949516
101	0x3e3ba48b	0.18324487
102	0x40354117	2.8320978
103	0x3ee64dd1	0.44981244
104	0xbfdc7085	-1.7221838
105	0xc02de39e	-2.7170177
106	0xbc585972	-0.013204919
107	0xbf18cec4	-0.596905
108	0xbd36f908	-0.04467109
109	0x3f216ff0	0.6306143
110	0x40063797	2.097143
111	0xbf884805	-1.0646979
112	0x4019697f	2.397064
113	0x3f6dd1c1	0.92898184
114	0xbfc75183	-1.557175
115	0x4023e07e	2.560577
116	0x401924f2	2.39288
117	0x3f5fa94d	0.8736771
118	0xc02f9bb6	-2.7438788
119	0xbfb8b618	-1.4430571
120	0x3f605e53	0.8764393
121	0xc00b0f21	-2.1727984
122	0x3feffece	1.8749635
123	0xbf475406	-0.77862585
124	0xbfaefdf6	-1.3671253
125	0xbf725606	-0.9466251
126	0xc01d4788	-2.457491
127	0x3fe26beb	1.7689184
128	0x3fe74763	1.806866
129	0x3f6f2dcc	0.93429255
130	0xbf6a87fa	-0.91613734
131	0xbf47f796	-0.7811216
132	0xbfe1bbb3	-1.7635406
133	0xbff3f12d	-1.9057976
134	0x3ef43939	0.47699907
135	0xbf06880d	-0.52551347
136	0x3f412d63	0.7545988
137	0xbe6f2616	-0.23354372
138	0x3fad25fc	1.3527217
139	0xc0047a0a	-2.0699487
140	0xbfad7449	-1.3551112
141	0xbedfd0cf	-0.43713996
142	0x3d184bce	0.037181668
143	0xbfa67b3f	-1.3006362
144	0xbf2fac5c	-0.68622375
145	0xc0450fbd	-3.0790856
146	0x3fdb6793	1.7140983
147	0xbe86892c	-0.2627653
148	0xbfd8a3e3	-1.6925014
149	0x3f62b1c8	0.8855252
150	0xbf666c61	-0.90009123
151	0x3fbabe45	1.4589316
152	0x3f8330ec	1.0249305
153	0xbff1c037	-1.8886784
154	0xbfb0c791	-1.3810903
155	0xbfc4831c	-1.5352511
156	0xc02ec05d	-2.730491
157	0x401a47be	2.4106288
158	0xc005b784	-2.089326
159	0x3fd15a8d	1.6355759
160	0x3dc53422	0.09629084
161	0xc01f5bee	-2.489986
162	0xbf273ab3	-0.6532394
163	0x40517658	3.2728481
164	0x3fd46dc3	1.6595997
165	0x3dcaf18d	0.099093534
166	0x3fb5ebf0	1.4212627
167	0xbf556114	-0.83351254
168	0xc05c590e	-3.4429355
169	0xbfe892f2	-1.8169844
170	0xc024d9ff	-2.5758054
171	0x401d70c3	2.4600074
172	0x3f6edab1	0.93302447
173	0xbf2afa84	-0.66788507
174	0xc01c1c35	-2.4392216
175	0x3f9afdd3	1.2108711
176	0x40508539	3.2581313
177	0xbf04886c	-0.51770663
178	0xbf294172	-0.66115487
179	0x3ff40efe	1.9067075
180	0x3f8975fe	1.0739133
181	0xbf95642a	-1.1671193
182	0x3f01a770	0.50646114
183	0x3f8ab9b2	1.083792
184	0x3f9ff7cc	1.2497497
185	0xc003f5da	-2.0618806
186	0xbfb42912	-1.4075034
187	0x3f99a8e9	1.2004672
188	0x3fc8b415	1.5679957
189	0x3fffea85	1.9993445
190	0x40003955	2.0034993
191	0xbd085fe0	-0.03329456
192	0x3ec0853d	0.37601653
193	0xbdd2f162	-0.10299946
194	0x3fc2d1b9	1.5220252
195	0x40297d36	2.6482673
196	0xbff18a7b	-1.8870386
197	0xbe177e27	-0.14794217
198	0x3fd0c78a	1.6310894
199	0x3fb70978	1.4299765
200	0xbed089e8	-0.40730214
201	0xbd7971c8	-0.060899526
202	0xc031da72	-2.7789578
203	0xbf8104b3	-1.0079559
204	0xbfb79399	-1.4341918
205	0xbe86dc34	-0.26339877
206	0xbed2064f	-0.41020438
207	0x3f740b60	0.95329857
208	0xbfaa1510	-1.3287678
209	0xbe6c844e	-0.23097345
210	0x3f00a821	0.50256544
211	0xbf92cadb	-1.1468157
212	0x3fcb78bd	1.5896221
213	0x3f7b218f	0.9809808
214	0x4044c388	3.0744343
215	0x3ffb2fa5	1.9623915
216	0x4027c718	2.6215267
217	0xbfc712dd	-1.5552632
218	0xbfd78faa	-1.6840718
219	0xbe5f4c58	-0.21806467
220	0x3eef8278	0.46779227
221	0x3fb763ca	1.4327328
222	0xbd890ffa	-0.066925004
223	0xbe11eacc	-0.14249724
224	0xbf0282bb	-0.5098073
225	0xbef7b32f	-0.48378894
226	0x3f572aec	0.8404987
227	0x3f23a384	0.6392138
228	0x3f023dfa	0.5087582
229	0x3fd66025	1.6748091
230	0x3ef25101	0.47327426
231	0xbf5e5105	-0.86842376
232	0xbf0426b3	-0.5162155
233	0xbfb29f84	-1.395493
234	0xbf8540db	-1.0410417
235	0x400fd5ee	2.2474322
236	0x40697612	3.6478314
237	0xc0087962	-2.1324086
238	0x3fcb5f04	1.5888371
239	0x3f4a40ad	0.7900494
240	0x3d7e002b	0.06201188
241	0x3f410f27	0.75413746
242	0xc0014410	-2.0197792
243	0xbfc8ba43	-1.5681843
244	0x40294812	2.6450238
245	0x3e39f2ec	0.18159074
246	0x3fa1a84b	1.2629484
247	0x400c9448	2.1965504
248	0x3e06bbc7	0.13157569
249	0x402d5f42	2.708939
250	0x3fb71012	1.4301779
251	0xbbe24ce4	-0.0069061387
252	0x3d04a64b	0.03238515
253	0x401c381c	2.4409246
254	0x40020b75	2.0319493
255	0xc03383e2	-2.8049245
