analysis/test_dir/test_data/embeddings/cleaned_300_pku-safe-30k-gemma-2-9b_no_ann/cleaned_300_pku-safe-30k-gemma-2-9b_no_ann_entity_embeddings.pt (torch, 753061 bytes, 1 tensors)

weight f4 [2932, 64]
00000000: 4e68 c4bf 0159 8a3f 166c 1ebf b26e 733e
00000010: 179d 103f adfe 4d3f f24f 9dbf 2728 a1bf
00000020: 16aa edbf 32fd 573f 30e1 de3f 0fad 6e3f
00000030: 46a0 4ebf 078e e53f 2c73 cd3f df15 a8bf
00000040: ca50 4f40 b505 d0bf 5804 0ac0 e1f5 5f3d
00000050: a29a ef3e 0b80 de3f 0689 e9be c585 14bd
00000060: 6d6d 94bf 2d64 1640 aa28 e5bf b495 3d3f
00000070: 7b4c 5d40 f043 713e f637 bd3e d985 ad3f
00000080: dad6 1abf 9998 a6bf 95b6 07be cb40 db3e
00000090: 7648 26bf 87f5 8cbf 598e 953f a1e6 1d40
000000a0: dc45 24c0 cf5e 05c0 94b9 853f a55f 803f
000000b0: f95c 0640 b835 2b40 ae8f cb3f bf57 fcbf
000000c0: 6fb8 a33f dc87 c8bf df8f fd3f 8df7 7c3f
000000d0: 0ae9 923f 0bf5 1c3d 3ed7 f1bd e093 9abf
000000e0: 6664 fb3e 13c3 3cbf 1250 c43f bc80 7d3f
000000f0: 937e 4a3f 0e77 d1bd 295e 49bf 5698 7d3e
00000100: c5d0 15bf 4696 e0bf 6119 b93f 2b6c 0940
00000110: 6f60 d4bf e46f b63d d2d0 abbf 4593 4340
00000120: 7d63 0240 058a 4c3e 264c da3e dca7 c83f
00000130: 36cb 4fbf 0ab9 fdbf 287f 68be ecde aabf
00000140: dca9 ab3e 4494 143f ab87 98bf 93a8 c63f
00000150: 3017 4b3e 08b5 2dbf 2c86 c73f c60b bf3f
00000160: 462b bb3e eeeb e03f f460 bd3e ce8f 6e3f
00000170: 6302 8bbf e44d 71be bf38 713f 561e 833f
00000180: 75fd 243f 6609 843f f97c c93e 9b05 0040
00000190: 5ee5 a33e 20cd 83bd 9137 42be e8cf 11c0
000001a0: 9505 3bbe 2a87 14c0 9ca2 e6bf 8f76 c03e
000001b0: 53b0 623f 2a36 02bf 0d21 67bf e330 a13f
000001c0: d5da b8be 04a3 3640 85ff adbe f281 1f40
000001d0: 6368 e43e ef13 6bc0 4418 bcbf db56 f6bc
000001e0: 7cd0 473f 815d 21bf 093f 28c0 d2ef 4cbe
000001f0: 38db afbf b258 a2bf 5742 d93f 2800 053e
00000200: 44b9 f3be 574f 83bf fed6 f73f fd2e a9bf
00000210: 7c2a 72be 3182 cc3f 8f62 0740 5870 a5bf
00000220: 91e0 76bf 7df7 09be a844 b1be 2dd9 1ac0
00000230: 81f6 8d3d 7275 8f3f fb02 9e3f 7207 ce3e
00000240: 4a2a 80bf 71f0 e83f 4ecc d23f 80ae 11bf
00000250: cd04 14bd 9ebe 03bf ff4f e53c 1b9a 5440
00000260: 4717 eb3e 7aae f23e 7396 b8bf 9046 c23f
00000270: 8269 1ac0 3bbb b33e 2932 1d3f 2e76 f53e
00000280: 20a0 63c0 f1d0 e8bf 4448 503f b5a4 4cbf
00000290: 5c3e 69bf 9770 79bd 4fea f53f 27b9 a8bf
000002a0: 2561 b5be 50f0 8e3f 64c9 7fbd 0eb9 303f
000002b0: 77b7 0fbf 2ce2 3c3e 45c7 893f e344 04be
000002c0: b29e c2be 3920 70bf 0131 fe3e 1b87 23c0
000002d0: 1f3e 1bbf ccce 203f 4257 a7bf 8ab4 babf
000002e0: 5f71 fe3f 98d7 25c0 7e74 d23f fd41 043f
000002f0: 8e75 6a3f 8ced 883c 2aff babf f9e5 84be
00000300: 7450 9ebf 49ca e4be a04e 263d ac0d 723f
00000310: eed9 e0be 04b0 05c0 c3b5 503f 5ee3 53c0
00000320: 242a 5f40 cf47 2fc0 166c aebf 8cc2 953e
00000330: 7ee4 723e bd0d cebe 8cee e0bd d355 fdb9
00000340: ee70 f83e 1460 ac3e 8b3d c3bf cf81 0b40
00000350: a56b 1f40 a26b 86bf 2663 ecbf 6fc1 abbf
00000360: 76e1 ffbf ea90 d8bf fc45 df3f 3467 67bf
00000370: b2c6 60be 01b7 31c0 48d7 ddbe e9a7 8e3d
00000380: 5e22 33bf 343c b6bf f621 823f c768 2dc0
00000390: 0ffa 1ac0 bb66 60bf 4ce9 88bf e369 ccbf
000003a0: eaa3 083f a042 7ebe 7035 523f da7b acbf
000003b0: 6aa6 fd3e 78c6 8a3f 90c7 81bf 7291 9cbe
000003c0: a98e 653f 86d2 8dbf 2a1e a93f fd74 593f
000003d0: fb2c 19c0 5d9c cf3f 94b1 8fbe d1c3 943f
000003e0: e211 533f 1617 abbf 9a65 3cc0 2b47 c43f
000003f0: 6ecd 2c3f 6b76 0940 48bd 953d 0a13 0840
-1.5344331 1.0808412 -0.61883676 0.23772696 0.564897 0.8046673 -1.2290022 -1.2590379
-1.8567531 0.8437072 1.7412472 0.93232816 -0.8071331 1.7933968 1.6050773 -1.3131675
3.239306 -1.6251742 -2.1565151 0.054677848 0.46797663 1.7382826 -0.45612353 -0.036260385
-1.1595894 2.3498642 -1.7903035 0.74056554 3.457793 0.23561072 0.36956757 1.3556472
-0.6048409 -1.3015319 -0.13253243 0.4282287 -0.64954317 -1.1012429 1.1684066 2.4672015
-2.5667639 -2.0839117 1.0447259 1.0029188 2.0994246 2.6751537 1.5903223 -1.9714278
1.279066 -1.5666461 1.9809531 0.9881523 1.1477368 0.03831963 -0.11808632 -1.2076378
0.49100035 -0.7373516 1.5336936 0.9902456 0.79099387 -0.10227786 -0.786593 0.24765143
-0.5852168 -1.754586 1.446087 2.147227 -1.6591929 0.0890806 -1.3423102 3.0558636
2.0373223 0.19974525 0.42636222 1.5676227 -0.8116945 -1.9822094 -0.22704756 -1.334928
0.3352803 0.58038735 -1.1916403 1.5520195 0.19833064 -0.67854357 1.5587821 1.4925468
0.36556453 1.7572 0.36988032 0.9318818 -1.0860103 -0.23564869 0.9422721 1.0243633
0.64449245 1.0315368 0.3935316 2.0003421 0.3201093 -0.06435609 -0.1896651 -2.2783146
-0.18263848 -2.3207498 -1.8018374 0.37590453 0.885503 -0.508639 -0.90284806 1.2593044
-0.36104456 2.8536997 -0.33984008 2.4923062 0.4461089 -3.6730917 -1.4694905 -0.030070713
0.78052497 -0.630333 -2.6288474 -0.20013359 -1.3738775 -1.2683318 1.697337 0.12988341
-0.47602284 -1.0258588 1.9362485 -1.3217465 -0.23649019 1.5977231 2.1153905 -1.292491
-0.9643641 -0.13473316 -0.34622693 -2.4195054 0.069317825 1.1207716 1.234466 0.40240055
-1.0012906 1.8198377 1.6468599 -0.5690689 -0.03613739 -0.51462734 0.027992247 3.3219059
0.45916197 0.4739874 -1.4420913 1.5177784 -2.4126897 0.35103783 0.61404663 0.47941726
-3.5566483 -1.8188764 0.8136027 -0.79938823 -0.9111078 -0.06089839 1.921213 -1.3181504
-0.35425678 1.1167088 -0.06244792 0.6903237 -0.5613932 0.18445653 1.0763937 -0.12916903
-0.380117 -0.9379917 0.49646762 -2.5551212 -0.60641664 0.62815547 -1.3073504 -1.4586346
1.9878348 -2.5912838 1.64418 0.5166319 0.91585624 0.016714834 -1.460912 -0.25956705
-1.2368302 -0.4468558 0.040602326 0.9455211 -0.43916267 -2.0888681 0.81527346 -3.3107524
3.486947 -2.7387578 -1.3626735 0.2924999 0.23719975 -0.40244856 -0.10982999 -0.00048319864
0.4852366 0.33667052 -1.5253156 2.179798 2.490945 -1.0501597 -1.8467758 -1.3418406
-1.999068 -1.6919224 1.7443233 -0.9039185 -0.21950796 -2.7767947 -0.4332831 0.0696562
-0.69974315 -1.4237123 1.0166614 -2.70952 -2.4215124 -0.87656754 -1.0696197 -1.5969814
0.53375113 -0.24830103 0.8211279 -1.3475296 0.49541026 1.0841818 -1.0139027 -0.30579716
0.8967081 -1.1079872 1.321233 0.84944135 -2.3933704 1.6219593 -0.2806517 1.1622258
0.8244916 -1.336642 -2.9437013 1.5334219 0.6750096 2.1478527 0.07311493 2.126162
