analysis/test_dir/test_data/embeddings/cleaned_300_pku-safe-30k-gemma-2-9b_no_ann/cleaned_300_pku-safe-30k-gemma-2-9b_no_ann_relation_embeddings.pt (torch, 342447 bytes, 1 tensors)

weight f4 [1328, 64]
0	0x3f0b4b61	0.54411894
1	0x3f6e8aec	0.9318073
2	0xbf510e24	-0.816622
3	0xbf9a82ee	-1.2071207
4	0x3f145ebf	0.5795707
5	0x3e214c21	0.15751697
6	0x3f5e7464	0.8689635
7	0x3f409b1d	0.75236684
8	0xbf051e72	-0.5199958
9	0x3fb8c45c	1.4434924
10	0x3e8bf284	0.27333462
11	0x3f2b801c	0.66992354
12	0x3e90e7de	0.283019
13	0xbf2f7249	-0.6853376
14	0x3dcee22f	0.10101735
15	0x3dfeb2c1	0.12436438
16	0xbf05f586	-0.52327764
17	0xbd718c7c	-0.058971867
18	0x3f3acf50	0.72972584
19	0x3fedc854	1.857676
20	0xbdc4cdeb	-0.09609588
21	0xbf3098f2	-0.68983376
22	0x4020a4c9	2.5100577
23	0xc00d9c26	-2.2126555
24	0x3fa92663	1.321484
25	0xbed62085	-0.41821685
26	0xbfd5d62b	-1.6705984
27	0xbed53a7a	-0.41646177
28	0x3ec450db	0.38342938
29	0xbf23f5fd	-0.64047223
30	0xbfcfbc7a	-1.6229393
31	0x3e7668b6	0.24063382
32	0xbf8e07c5	-1.1096121
33	0x3f299dba	0.66256297
34	0xbf61964e	-0.8811997
35	0x3e915d3b	0.28391442
36	0xbdb90096	-0.09033315
37	0x3e2d285e	0.1690993
38	0x3f41f762	0.757681
39	0x3e9db213	0.30799922
40	0xbe0a71b2	-0.13519934
41	0x3ecf40c7	0.4047911
42	0x3fb5092b	1.4143423
43	0x3ee06299	0.43825224
44	0x401ea8c6	2.479051
45	0xbf17702e	-0.5915555
46	0xbf24f26b	-0.644324
47	0x3f3819ef	0.7191457
48	0x3f672d40	0.9030342
49	0xbf36cfac	-0.7141063
50	0x3f4a1d96	0.78951395
51	0x4032dae6	2.7946105
52	0x3f85d355	1.0455118
53	0xbf861382	-1.0474703
54	0x3ea1734e	0.31533283
55	0x3d664260	0.056215644
56	0xc02c5076	-2.692411
57	0x3eb5fb9d	0.35543528
58	0xbf8f8769	-1.1213199
59	0x3eba9e95	0.36449113
60	0xbf87d79c	-1.0612674
61	0xbef16c9f	-0.47153184
62	0xbeaa6dad	-0.332868
63	0xbf25dca5	-0.647898
64	0xbf3b845e	-0.7324885
65	0x3e1334c2	0.14375594
66	0xbfdf2fc7	-1.7436455
67	0xbcf3b1ea	-0.029747922
68	0x3f961c1c	1.1727328
69	0xbf3ad87d	-0.72986585
70	0x3fa84f6f	1.3149241
71	0x3ede6f42	0.43444258
72	0x4010ceb4	2.2626162
73	0xc00ddc5e	-2.2165751
74	0xc06796bf	-3.6185758
75	0xc04fdb12	-3.247746
76	0xbfe08b08	-1.7542429
77	0x3fd4c0b0	1.6621304
78	0x3fdb3c91	1.7127858
79	0x3e6476ad	0.22310896
80	0xc0008f83	-2.0087593
81	0x3f05da23	0.52285975
82	0x3ee16c21	0.44027808
83	0xbe85678b	-0.2605556
84	0xbe6c0513	-0.2304881
85	0x3ece2ee0	0.40270138
86	0x3e84c769	0.25933388
87	0xc08944d7	-4.2896533
88	0xc0269f30	-2.603466
89	0x3f12c5c5	0.5733302
90	0x3fa3b551	1.2789708
91	0xbe886245	-0.26637474
92	0x3f7dd8cc	0.9915893
93	0x40545457	3.3176477
94	0x3ecfebe9	0.40609673
95	0xbe002098	-0.12512434
96	0x3e9014c2	0.28140837
97	0xbf9834dd	-1.1891133
98	0xc0517d8f	-3.2732885
99	0x4009c9fe	2.1529536
100	0xbfd82c45	-1.688851
101	0x3fb231dc	1.3921466
102	0x3fd0e4b4	1.6319795
103	0xbe158b72	-0.14603975
104	0xbefee998	-0.49787593
105	0xbee243ee	-0.4419245
106	0x402714cc	2.6106443
107	0x3f35ce74	0.7101815
108	0x3eab9ab8	0.3351648
109	0x3e5e680b	0.21719377
110	0x3ff33f91	1.9003774
111	0x3e86ec97	0.2635238
112	0x408a5db7	4.32394
113	0x408ca989	4.395695
114	0x403c8dd4	2.9461565
115	0xbd1af571	-0.037831727
116	0xbef1d4cd	-0.47232667
117	0xc05c50eb	-3.4424388
118	0x3f544e62	0.829321
119	0x3eb868a8	0.36017346
120	0xbf14d8a4	-0.5814307
121	0xbfb73f22	-1.4316142
122	0x3d954180	0.07287884
123	0xbececb0c	-0.40389287
124	0xbeca730b	-0.39540896
125	0x400a3fdd	2.160148
126	0xc039d937	-2.9038827
127	0xbfdbbbd9	-1.7166702
128	0x3f7efd7e	0.9960555
129	0x400d7073	2.2099884
130	0xbf807971	-1.0037061
131	0x3f02ca6e	0.51090133
132	0xc02235ad	-2.534526
133	0x3e45d1d9	0.19318332
134	0x3ed98e7e	0.42491525
135	0x3f87a543	1.0597309
136	0xbfb99dc1	-1.4501268
137	0xbf7a0ee8	-0.97678995
138	0xbf0ec96e	-0.5577611
139	0xbfb01035	-1.3754946
140	0xbff3f60f	-1.9059466
141	0xbf847c28	-1.035039
142	0x3fc1fee0	1.5155907
143	0x3f8a583d	1.0808178
144	0xbf058d1c	-0.5216844
145	0x3f5295e6	0.82259977
146	0x3ebeae3f	0.37242314
147	0x3fe97013	1.8237327
148	0x40304378	2.754118
149	0x3f57feeb	0.8437335
150	0x3f449705	0.7679294
151	0x3e118b85	0.14213379
152	0xbfcfb197	-1.6226071
153	0xbed3775f	-0.4130201
154	0x3e42cf9d	0.1902451
155	0x3f848969	1.0354434
156	0x3fecd865	1.8503538
157	0x3e90172e	0.28142685
158	0xbfbd4297	-1.4785947
159	0x3ea37fa7	0.31933329
160	0xbf4986c4	-0.7872126
161	0xbf8d946c	-1.106092
162	0xbb9292ca	-0.004473065
163	0x3ecc6017	0.3991706
164	0x3eb1ae56	0.3470332
165	0x3e72d6ea	0.23714796
166	0xbf9bc45b	-1.2169298
167	0xbecce7fd	-0.40020743
168	0x3fa25b91	1.2684194
169	0x3e93b7d6	0.28851193
170	0xbf7d2a6b	-0.9889285
171	0x3fba7c00	1.4569092
172	0xbeefa6b6	-0.46806878
173	0xbf81a43b	-1.0128244
174	0xbf2b7d79	-0.6698833
175	0x3f4452e7	0.76689
176	0x3eeef443	0.46670732
177	0x3f06bba4	0.52630067
178	0xc0153364	-2.3312616
179	0x3f0249ed	0.5089405
180	0xbfde9f4f	-1.7392367
181	0x3fdacd8e	1.709398
182	0xbf88289c	-1.0637393
183	0x3f05f922	0.5233327
184	0xbfd480ce	-1.6601808
185	0x3fc23913	1.5173668
186	0xbf01eab8	-0.5074878
187	0x3d25763f	0.04039597
188	0xbf34d514	-0.7063763
189	0xbe7d5bc2	-0.24742034
190	0x3e29b750	0.16573834
191	0xbfd199dd	-1.637508
192	0xbf83f8c3	-1.0310291
193	0x4025d144	2.5908976
194	0xbf8492fb	-1.0357355
195	0xbe3e871a	-0.18606225
196	0xbef0aa65	-0.47005
197	0xbf0b19cb	-0.5433623
198	0x3f9bcbe6	1.21716
199	0xbfd912c4	-1.6958852
200	0xbf618db8	-0.8810687
201	0xbfce4126	-1.6113632
202	0xbfffd4dd	-1.9986836
203	0x3ec35b4c	0.3815559
204	0xbec7a6c0	-0.38994408
205	0xbf8525b8	-1.0402136
206	0x3ffd7203	1.9800419
207	0xbf8942d7	-1.0723523
208	0x3fb0df88	1.3818216
209	0x4019ca77	2.4029825
210	0xc01aad97	-2.416845
211	0xbf1a15e8	-0.60189676
212	0xbf745fe4	-0.9545882
213	0x3fa8dab2	1.319174
214	0xbf3990e4	-0.7248671
215	0xbf2ebf15	-0.6826032
216	0xbf29cf6b	-0.6633212
217	0x3f5a3a76	0.85245454
218	0x3e7f21b9	0.24915208
219	0x3fa7c3ee	1.3106668
220	0x3f71efe2	0.9450666
221	0x3edee3fe	0.4353332
222	0x3fabc6a2	1.3419993
223	0xbfbef1cd	-1.4917542
224	0x3fd8170b	1.6882032
225	0xbf6640a2	-0.8994237
226	0xbf8d174d	-1.1022736
227	0x4010f9ae	2.2652392
228	0x3f400708	0.7501073
229	0xbf1b9ad4	-0.60783124
230	0x40456ac7	3.0846422
231	0x3fbaa82b	1.4582571
232	0xbf52e424	-0.82379365
233	0xbf2927f6	-0.660766
234	0x3fb5e305	1.4209906
235	0x3f3981d4	0.72463727
236	0x4016ca9b	2.356116
237	0xbf5f80c2	-0.87305844
238	0x3f31beb7	0.6943163
239	0xbf0dac04	-0.553406
240	0x3f85110d	1.0395828
241	0xbf841719	-1.0319549
242	0x3f69543e	0.9114417
243	0x3f864d05	1.0492254
244	0x3e3e465f	0.18581532
245	0xbeea69d1	-0.45783857
246	0xc05a1f17	-3.4081476
247	0x3d12fb11	0.035883967
248	0xbf9aa07b	-1.2080225
249	0x3f9b37fd	1.2126461
250	0xbf32a4e7	-0.6978287
251	0x3eab4fed	0.33459416
252	0xbee0186f	-0.4376864
253	0x3f8c175f	1.0944632
254	0xbf0fd83a	-0.5618931
255	0xbf117315	-0.56816226
