analysis/data/embeddings/cleaned_300_pku-safe-30k-test-Mistral-7B-Instruct-v0.2.json_clustered/cleaned_300_pku-safe-30k-test-Mistral-7B-Instruct-v0.2.json_clustered_entity_embeddings.pt (torch, 532460 bytes, 1 tensors)

weight f4 [2069, 64]
-1.1810893 1.0008799 -2.3760173 0.3612165 4.701004 3.5042157 -0.8901854 1.1888264
2.3588495 -0.93728983 2.4462304 -1.5694902 3.8208346 -0.17591259 -2.5587304 0.111121126
2.1392918 -0.74512243 -0.11399463 -0.7154233 2.638543 -0.9646792 1.3276541 1.0899322
-2.7388873 0.37516266 -1.9571215 1.3651975 -1.4133531 2.0311425 0.09279204 -3.7356668
-1.952435 -1.9780248 -1.2825452 -1.9683347 -2.8569129 2.8656561 1.3509611 0.81180936
3.2005062 -0.51832825 -0.6463872 -3.305467 2.769696 -1.2803711 -1.3564868 -2.1110802
0.010856951 1.2625612 0.31040746 -1.306461 2.7347972 -0.1345224 4.433151 -2.2971861
-1.1886073 1.2156624 -3.906535 2.0441997 -1.5761485 -1.4133981 3.0793428 -0.39917627
-0.6130775 0.39928815 3.2186613 -2.0312243 2.5968285 3.9516466 -3.6851034 4.2012243
0.45950073 0.9543403 1.3647288 -3.515649 0.67780924 0.5868395 -1.3712195 -3.2404468
0.32477996 5.035794 1.4555529 -2.0754423 -1.8330604 -0.06514808 -3.8039026 1.3174411
-0.54872364 1.502452 -1.655309 1.3227879 1.2726731 -2.3345332 -1.3686601 -3.3945632
-1.0255661 0.9325035 -1.166126 0.41453657 1.2430409 0.18413894 -0.48481077 1.4799544
1.6086377 1.890441 -2.1148884 -1.9230185 1.0956975 -0.9546725 1.865238 -1.7143918
0.2376116 0.61352265 -2.7238576 0.7289901 -1.6597886 0.9810719 3.7839162 2.3210917
2.6776955 -1.5093446 -1.5285782 0.081682205 -0.2593401 2.4576714 1.0293943 1.1694618
-2.8655171 0.021017259 3.464098 -0.51537365 -3.5084085 3.6332293 -3.6980996 -2.352202
2.2558255 -0.4142631 -0.68679136 1.6760439 -3.0670326 -1.1081727 3.1306496 0.8918365
2.5910363 2.7331655 -0.73251045 2.5778723 -3.5440795 -1.1424524 3.5775225 -4.4729686
-2.9683647 3.6654165 -0.5102351 0.7515935 1.4841485 -2.5680685 -0.20289811 -2.2494843
-1.6332725 3.1529133 2.709379 2.3958495 -1.2409918 -3.409709 -2.5083327 -0.34115177
1.0868561 5.2901917 -1.4395629 0.543817 -3.521012 -0.43957567 0.5761459 -0.8302897
1.4810597 -0.54868186 -0.34943256 2.2744846 1.1154337 1.397284 4.633018 -3.5800629
-0.41028577 -0.019848682 -1.338039 -1.1611208 2.1347015 0.6714959 -3.723434 -1.1149036
0.33859715 -1.9901515 -4.6235414 -0.9022882 -0.1635633 -2.3151305 -2.6582818 -0.3814376
0.3147655 -1.7676069 3.1420841 -1.4963901 -2.9088838 -1.5452812 1.1514454 -3.6755447
0.51123273 -3.341832 -0.37364694 -0.055981353 -1.0794767 -0.6837085 3.3068979 5.1441526
-3.928445 3.182597 3.640975 3.8999069 -2.960039 -4.5391836 1.6341045 0.4887959
-3.0780854 -4.509205 -4.078005 -1.2381575 -1.5768853 1.6191038 -1.2058483 1.2205145
1.464953 -0.6737563 0.71185994 0.5022093 0.80923784 0.2656989 2.8685484 0.2620342
-2.4551785 -3.5459983 -1.288324 1.5184625 -0.92106634 -3.2740254 0.025444271 -1.9662374
2.7381766 2.372079 1.4982308 -2.907981 1.1749892 1.184127 -1.4130385 2.3186295
00000000: ef2d 97bf d51c 803f ab10 18c0 5ef1 b83e
00000010: a06e 9640 1245 6040 31e3 63bf 772b 983f
00000020: 64f7 1640 3af2 6fbf 0a8f 1c40 0ee5 c8bf
00000030: 8e88 7440 6e22 34be 3dc2 23c0 7993 e33d
00000040: 28ea 0840 58c0 3ebf 0476 e9bd fb25 37bf
00000050: e3dd 2840 37f5 76bf 92f0 a93f e682 8b3f
00000060: ee49 2fc0 5215 c03e f582 fabf cbbe ae3f
00000070: c1e8 b4bf 3dfe 0140 c109 be3d 2a15 6fc0
00000080: 64e9 f9bf eb2f fdbf 712a a4bf 64f2 fbbf
00000090: a9d7 36c0 e966 3740 4bec ac3f bdd2 4f3f
000000a0: 18d5 4c40 29b1 04bf a279 25bf c58c 53c0
000000b0: b342 3140 33e3 a3bf 5ca1 adbf f01b 07c0
000000c0: 5ae1 313c 9b9b a13f baed 9e3e 1d3a a7bf
000000d0: eb06 2f40 3dc0 09be 5fdc 8d40 1905 13c0
000000e0: 4924 98bf d39a 9b3f ab04 7ac0 2bd4 0240
000000f0: 3cbf c9bf 3bea b4bf f413 4540 d560 ccbe
00000100: a6f2 1cbf 7f6f cc3e 8cfe 4d40 94ff 01c0
00000110: 7032 2640 c7e7 7c40 bcd8 6bc0 6e70 8640
00000120: ae43 eb3e a54f 743f 6faf ae3f 6500 61c0
00000130: e884 2d3f 1d3b 163f 1f84 afbf 7b63 4fc0
00000140: 8f49 a63e 3925 a140 8f4f ba3f 0cd4 04c0
00000150: b9a1 eabf 5b6c 85bd 2473 73c0 e9a1 a83f
00000160: 2779 0cbf 5950 c03f 2ae1 d3bf 1d51 a93f
00000170: f4e6 a23f fe68 15c0 4130 afbf 8640 59c0
00000180: c045 83bf 8db8 6e3f 9e43 95bf 233e d43e
00000190: f71b 9f3f eb8e 3c3e 1e39 f8be 256f bd3f
000001a0: d7e7 cd3f f8f9 f13f 555a 07c0 7825 f6bf
000001b0: d13f 8c3f 6b65 74bf 1ec0 ee3f 3171 dbbf
000001c0: 7550 733e d20f 1d3f af53 2ec0 189f 3a3f
000001d0: f473 d4bf 8727 7b3f af2b 7240 c48c 1440
000001e0: 5d5f 2b40 3432 c1bf 73a8 c3bf 0049 a73d
000001f0: 3ac8 84be 7d4a 1d40 31c3 833f edb0 953f
00000200: a264 37c0 632c ac3c c8b3 5d40 87ef 03bf
00000210: c489 60c0 d486 6840 aaad 6cc0 7a8a 16c0
00000220: 725f 1040 4b1a d4be 8fd1 2fbf 9b88 d63f
00000230: 434a 44c0 9ad8 8dbf 905c 4840 664f 643f
00000240: 8ad3 2540 2fec 2e40 ce85 3bbf dcfb 2440
00000250: 33d2 62c0 e13b 92bf 21f6 6440 8f22 8fc0
00000260: b0f9 3dc0 2f96 6a40 c49e 02bf 6e68 403f
00000270: 94f8 bd3f 3c5b 24c0 86c4 4fbe 8df7 0fc0
00000280: 130f d1bf 55c9 4940 7766 2d40 9955 1940
00000290: d2d8 9ebf ac38 5ac0 8688 20c0 72ab aebe
000002a0: 1a1e 8b3f 4049 a940 9943 b8bf 9737 0b3f
000002b0: 4358 61c0 1010 e1be 4c7e 133f de8d 54bf
000002c0: 5d93 bd3f 6a76 0cbf d3e8 b2be 2891 1140
000002d0: 88c6 8e3f 34da b23f af41 9440 c01f 65c0
000002e0: fa10 d2be b499 a2bc dd44 abbf 9b9f 94bf
000002f0: f39e 0840 28e7 2b3f be4c 6ec0 29b5 8ebf
00000300: 9b5c ad3e 49bd febf 0df4 93c0 5cfc 66bf
00000310: 237d 27be 192b 14c0 4a21 2ac0 ca4b c3be
00000320: f228 a13e f140 e2bf e817 4940 b689 bfbf
00000330: 272b 3ac0 c6cb c5bf 9062 933f 203c 6bc0
00000340: 26e0 023f 93e0 55c0 a74e bfbe b44c 65bd
00000350: 4b2c 8abf 8507 2fbf 37a4 5340 e69c a440
00000360: a56b 7bc0 abaf 4b40 bc05 6940 1398 7940
00000370: 4771 3dc0 fe40 91c0 562a d13f 7543 fa3e
00000380: 5aff 44c0 684b 90c0 047f 82c0 f27b 9ebf
00000390: 61d7 c9bf cb3e cf3f 3d59 9abf d239 9c3f
000003a0: 9483 bb3f 4b7b 2cbf 743c 363f ca90 003f
000003b0: 362a 4f3f b009 883e 4c96 3740 5929 863e
000003c0: a521 1dc0 a3f1 62c0 cde7 a4bf fb5c c23f
000003d0: 01cb 6bbf a289 51c0 8170 d03c abad fbbf
000003e0: 493e 2f40 24d0 1740 07c6 bf3f 5c1c 3ac0
000003f0: 0c66 963f 7991 973f 72de b4bf 6d64 1440
