analysis/data/embeddings/cleaned_300_pku-safe-30k-test-Mistral-7B-Instruct-v0.2.json_clustered/cleaned_300_pku-safe-30k-test-Mistral-7B-Instruct-v0.2.json_clustered_relation_embeddings.pt (torch, 268534 bytes, 1 tensors)

weight f4 [1038, 64]
1.3549082 -1.4989084 -1.3090837 1.5884588 1.6650856 0.17129688 -1.5369893 2.1557956
-1.43711 2.0624342 2.6056743 -0.40106684 1.2630423 2.9779537 2.4397633 -0.106663905
-0.40634283 1.9272498 2.0886066 -1.559191 -0.06814121 1.5917456 2.1016102 -3.4225621
-2.1830256 -3.2134435 -2.2979534 -0.8612929 1.7274609 0.63763225 1.406666 -2.1636806
1.3834828 -0.8046526 -1.4428265 2.0166402 1.0550873 -2.0379336 1.3980281 -1.7488482
0.9989416 -0.84409475 2.1690586 -0.86876386 -1.3727698 -1.1032872 -1.6493859 0.83691263
0.9116229 -0.84803545 2.345865 -2.9938743 -0.043029495 3.4143558 -1.8190428 2.1262252
2.2581632 0.88248134 0.46668372 -2.4936876 1.5946041 0.6504831 0.06638126 -3.3821712
0.42292568 0.4089971 -1.9517581 -1.2525722 -0.11528417 -1.3844761 -2.308261 1.0391951
-2.0564795 1.5632734 -1.4305792 -1.6983725 -0.7477767 -1.7904192 -3.1314542 -1.0989594
3.1346288 -3.5169463 -4.870073 -0.21601114 -2.706219 -2.6888742 -4.3557825 -0.7156225
-0.8607231 1.6014413 -1.2217176 1.2380135 -2.4213357 0.67750335 -1.5283651 3.5798533
0.6716556 0.299966 -0.79354477 -0.30541363 -3.8231006 2.8587377 -6.630271 4.5158324
-3.3029788 -1.1987444 3.3497674 -0.1799917 0.5438595 -1.4354839 0.872293 1.1027948
-2.7223194 2.2912169 0.77183867 -4.872584 5.204733 -1.7443843 1.2768536 0.55279917
2.0572138 -3.4107528 1.3771226 -2.210833 -2.6358128 -0.3842797 0.2286057 2.6601114
1.726796 3.6953518 -3.2916288 -0.97074616 -2.1820273 -3.5348687 0.7606044 -2.0421283
-0.70621693 3.2021296 -0.8793887 -4.1187325 3.8993783 -4.9903884 1.6983707 -2.688855
-4.419768 1.6552721 -1.292545 1.7642422 2.0907397 0.5762274 0.47391644 -0.71553135
1.096181 3.7057598 2.2814198 0.84216505 -0.4161878 -4.481731 -0.20213078 -3.8425252
2.7138586 0.069584094 -1.4641843 -0.9816758 0.5159997 -3.685048 -0.011899396 -2.9492066
-0.035082888 3.5543115 -2.6757908 0.115442626 0.292319 -1.6488891 -3.8356025 2.0547779
1.6373293 0.44739226 -0.94793 1.7693888 1.1972696 0.78087753 -0.72999424 -1.80662
-0.7072999 -3.4524024 3.2561445 0.7782238 -2.6805396 -0.8999475 -0.100944065 -1.4135624
-1.3814174 1.6182139 0.0289487 -1.5018018 -0.9774102 1.6220554 -1.4242226 -2.3140776
1.2115297 -1.9111686 -0.42941815 -0.1291771 0.75645256 -1.9012885 -1.3317746 1.7795175
-3.8364906 2.4535086 -2.0233617 -2.3721218 0.41622835 1.2102766 1.7330108 -0.8869475
-1.3799536 -0.77549535 -0.6410037 1.222071 1.7460517 -2.1975954 1.67947 1.4945072
2.3601627 -0.39973664 0.9872225 -0.11919266 -0.03159636 1.3574326 -2.9245667 0.34999773
-2.4072688 2.785312 -0.8374898 1.9859413 2.332822 -1.47266 0.934293 -0.69571567
-2.0600395 -0.2688763 -1.4646034 -1.0039272 -2.0738509 -0.98705316 1.8889028 0.096355736
0.5714028 -0.6633186 -0.08147691 -0.5195501 2.7516766 0.021111608 -0.9208022 -0.5579316
00000000: a26d ad3f 3bdc bfbf 0e90 a7bf 9e52 cb3f
00000010: 8621 d53f 7368 2f3e 11bc c4bf 8ef8 0940
00000020: 38f3 b7bf ecfe 0340 5ec3 2640 a258 cdbe
00000030: 5fab a13f cb96 3e40 1525 1c40 9b72 dabd
00000040: 2b0c d0be 1fb0 f63f bbab 0540 9293 c7bf
00000050: 9e8d 8bbd 52be cb3f c880 0640 420b 5bc0
00000060: b1b6 0bc0 0fa9 4dc0 ab11 13c0 b17d 5cbf
00000070: 701d dd3f de3b 233f a20d b43f be79 0ac0
00000080: f715 b13f b6fd 4dbf 8aae b8bf a210 0140
00000090: 1a0d 873f 816d 02c0 96f2 b23f 42da dfbf
000000a0: a3ba 7f3f 9816 58bf dbd1 0a40 4f67 5ebf
000000b0: ecb6 afbf 8438 8dbf 141f d3bf e83f 563f
000000c0: 1e60 693f da18 59bf a722 1640 a39b 3fc0
000000d0: b23f 30bd ce84 5a40 65d6 e8bf 1314 0840
000000e0: bf85 1040 4cea 613f 2bf1 ee3e 9498 1fc0
000000f0: fd1b cc3f 0f86 263f e6f2 873d 7e75 58c0
00000100: b789 d83e 1168 d13e 36d3 f9bf 4954 a0bf
00000110: 1b1a ecbd 8336 b1bf 8cba 13c0 5804 853f
00000120: 5c9d 03c0 5819 c83f 381d b7bf 4564 d9bf
00000130: 4b6e 3fbf 752c e5bf bf69 48c0 b4aa 8cbf
00000140: c29d 4840 a615 61c0 a3d7 9bc0 0632 5dbe
00000150: b132 2dc0 8416 2cc0 9262 8bc0 0933 37bf
00000160: 5958 5cbf 07fc cc3f 3e61 9cbf 3a77 9e3f
00000170: 2af7 1ac0 dc70 2d3f 78a1 c3bf 511c 6540
00000180: 9ff1 2b3f 2595 993e c025 4bbf 2d5f 9cbe
00000190: aead 74c0 8ff5 3640 2e2b d4c0 b381 9040
000001a0: 0164 53c0 7570 99bf 9762 5640 bf4f 38be
000001b0: 603a 0b3f f0bd b7bf 984e 5f3f 6128 8d3f
000001c0: 7b3a 2ec0 4ca3 1240 3897 453f 35ec 9bc0
000001d0: 2c8d a640 fc47 dfbf f06f a33f 3f84 0d3f
000001e0: 64a9 0340 c649 5ac0 8e45 b03f 4a7e 0dc0
000001f0: 28b1 28c0 4fc0 c4be 9d17 6a3e 443f 2a40
00000200: a707 dd3f a580 6c40 0caa 52c0 d282 78bf
00000210: 56a6 0bc0 4a3b 62c0 f8b6 423f 3bb2 02c0
00000220: a2ca 34bf b1ef 4c40 9e1f 61bf a8cc 83c0
00000230: 6a8f 7940 43b1 9fc0 3664 d93f 3316 2cc0
00000240: bd6e 8dc0 f5df d33f 1d72 a5bf b0d2 e13f
00000250: aece 0540 a483 133f 2da5 f23e 102d 37bf
00000260: a94f 8c3f 2b2b 6d40 c802 1240 2198 573f
00000270: 9116 d5be 576a 8fc0 5ffb 4ebe efeb 75c0
00000280: dcaf 2d40 1b82 8e3d 646a bbbf 1b4f 7bbf
00000290: 8e18 043f d4d7 6bc0 aff5 42bc cdbf 3cc0
000002a0: 13b3 0fbd d779 6340 2840 2bc0 2f6d ec3d
000002b0: d6aa 953e cc0e d3bf 837a 75c0 7b81 0340
000002c0: 0294 d13f 9910 e53e 8aab 72bf 557b e23f
000002d0: 2140 993f 97e7 473f e7e0 3abf 533f e7bf
000002e0: 9b11 35bf 29f4 5cc0 ac64 5040 ad39 473f
000002f0: f68d 2bc0 f662 66bf c3bb cebd 9def b4bf
00000300: 49d2 b0bf a221 cf3f d325 ed3c 0b3b c0bf
00000310: 8e37 7abf 839f cf3f ed4c b6bf d919 14c0
00000320: 6813 9b3f 2ca1 f4bf b2dc dbbe 0047 04be
00000330: e0a6 413f 6c5d f3bf 9777 aabf 3bc7 e33f
00000340: 1089 75c0 4906 1d40 c27e 01c0 d8d0 17c0
00000350: e21b d53e 58ea 9a3f 4cd3 dd3f fe0e 63bf
00000360: 52a2 b0bf dd86 46bf d218 24bf d36c 9c3f
00000370: 9f7e df3f 67a5 0cc0 dff8 d63f 034c bf3f
00000380: e80c 1740 48aa ccbe 9dba 7c3f 481b f4bd
00000390: 2f6b 01bd 5ac0 ad3f 1a2c 3bc0 e732 b33e
000003a0: b110 1ac0 8d42 3240 bb65 56bf 5333 fe3f
000003b0: f54c 1540 1f80 bcbf d32d 6f3f 6c1a 32bf
000003c0: b0d7 03c0 28aa 89be 2078 bbbf b080 80bf
000003d0: f9b9 04c0 84af 7cbf 91c7 f13f 2856 c53d
000003e0: 7447 123f 3fcf 29bf 5edd a6bd 3c01 05bf
000003f0: 781b 3040 40f2 ac3c b1b9 6bbf 9bd4 0ebf
