analysis/data/embeddings/cleaned_300_pku-safe-30k-test-Mistral-7B-v0.2_no_ann.json_clustered/cleaned_300_pku-safe-30k-test-Mistral-7B-v0.2_no_ann.json_clustered_entity_embeddings.pt (torch, 649634 bytes, 1 tensors)

weight f4 [2527, 64]
00000000: 499f e7be 2bea 2ec0 baa7 a1ba e255 b83f
00000010: 4650 973d e599 7c3f e92f 06bf f84d 5540
00000020: 993a f2bf 3126 81bf 1335 cabf 9d68 b63f
00000030: a858 723e d2c6 40bf 5e9c bd3f 808d a3bf
00000040: 1e23 d43e 7040 fa3f afa3 333f 2c9b ca3f
00000050: b40b 993f c109 2cbf 43b4 a23d 6221 5c40
00000060: 16e7 f63f 4b90 8240 dab4 2a3e 690d 463f
00000070: a3f3 26bf bd28 3bc0 2645 503f 15c1 ddbe
00000080: 6878 45be cea1 a7bf 3ca2 22c0 f421 c7bf
00000090: b6d5 4fbf 0584 6dc0 4bb0 463e b9ed c23f
000000a0: 4f25 4d3f 8b17 20c0 99e4 64bf 0f17 c13f
000000b0: 5e5f 11c0 7a3b 6dbf 96e3 cd3f 73d0 873f
000000c0: ea73 8a3f 9a8b bcbf f232 16c0 4e73 1c40
000000d0: cf65 aebf 655f 95bf 04b2 893f 1fc2 24bd
000000e0: 080c 32bf fa8b 1940 f05b 8e3f 7336 d7bf
000000f0: 52d5 7dbf 21d9 f63e 630c 3040 bc92 adbf
00000100: c7d6 1240 9518 b93f ff10 ffbf 7704 a9bf
00000110: a835 18bf 698e 9e3f c74a 34bf cd74 16c0
00000120: b6f9 763f 5316 60bf cc6f ebbf 3769 933f
00000130: 52a6 1240 351b ebbe 945e cc3d 07fd 2dc0
00000140: 67b0 203f a05d a2be 1b03 803f cd29 8d3f
00000150: 286d c6bf 7239 f6bf 8a7c eebd fe5b 90bd
00000160: 03d0 a7be 9e7b febf dac2 533f 5144 293f
00000170: b58b d4bf 4471 0c3f 069f 08be 01d2 ccbe
00000180: 4fa5 15bf 0da4 f0bf 4e57 b8be 22a3 e63f
00000190: df68 633f 1c24 b23f e7e5 4cc0 6255 79bf
000001a0: af22 ab3f 67aa 503f 729e 9e3f e93a 2640
000001b0: 004a 6540 640a 1d40 4648 68bf 8a16 64be
000001c0: 0895 c43e a7d3 a63f 7d05 e13f 0f2c 32c0
000001d0: e397 0540 619b 1ec0 e555 2f40 e6b3 85bd
000001e0: 1313 613f c12b 3a3f 5e62 02c0 c262 ea3f
000001f0: 5f08 ee3f 7ea8 a9bf ba40 293f a00a b53f
00000200: 3464 2040 c064 05bf 31ca 07bf d6be 4a3f
00000210: 8105 14c0 105a 1d3f 8cc5 9b3f d63c 503f
00000220: 8fe8 c8be 9062 c33f bc59 d3bf 4a2a 78bf
00000230: 320d 3cbf 4810 2cc0 dd4a 16bf 4f8b 9abf
00000240: c406 0ebf 0941 eb3f 6019 3a3f 31be e0bd
00000250: 6de7 16c0 b27e 30be 70e0 3ac0 a779 81bf
00000260: 39fe 4cc0 dfca c4bf f89f 54bf ee89 763f
00000270: 0f23 0cbf 64d2 f73f fa62 51bf 701c 2ac0
00000280: 79db 4f3f bcec 263e 1c5c c73f d2c8 c4bf
00000290: 2e1c 803f be1e 703f 4f97 e83e bbe8 133f
000002a0: ecde e73f b3ab 3740 df05 a9bf a9ea 423f
000002b0: 840e bd3f e894 f8bf 588f 95bf 8e46 853c
000002c0: 8334 0b40 0065 c2bf c88d ca3f 710d 2140
000002d0: a318 1d3f 83da 98be 3ace 9dbf 7033 b2bf
000002e0: afbc b2bf df39 903e 7767 01c0 690e e93f
000002f0: 6c50 fa3e a2a3 d63f a45f 02c0 dff2 6fbf
00000300: e91b 023f fc4b b2bf 2837 d2be 16f8 0140
00000310: 0763 3fbf 12f7 1b3e 9c56 51be abcf 95bd
00000320: 93dc 593e b16e 22c0 208e 43bf d7b0 0040
00000330: 9f5c 0340 9753 19c0 8765 04c0 b9df 7a3e
00000340: 9abe 07c0 9c15 d9bf fec2 b03f d6f5 a93f
00000350: f0a7 4abf 3056 21c0 ccaa fbbf d1c3 98bf
00000360: a43b 8a3f 8ae0 c0bf b7d1 173f 76ba 6440
00000370: 5a87 b2be 3770 e0bf 79fc 5540 a10a 82be
00000380: 1d99 e0bf 9320 c5be 41e6 50bf fc3c af3e
00000390: 3d0a 18bd 5aea a7bf 02a7 dbbf bbd0 30c0
000003a0: c53c 62be 1456 babf b933 febe 88ec e1bf
000003b0: 9a7f 1040 f534 043f dc61 dfbf 1582 9cbf
000003c0: 1446 31bd fdb1 0e3f c531 37bf 567b b83e
000003d0: a667 023e 817f a9bf 7e4e 3d40 3e97 1d40
000003e0: ac00 0140 9144 a23f 5f82 df3e 3185 2dbf
000003f0: ff7f ec3e 2bb2 73bf 6f31 b0be 162c 2640
-0.45238712 -2.7330425 -0.0012333312 1.4401209 0.07388358 0.98672324 -0.52416855 3.3328838
-1.8924133 -1.008978 -1.5797447 1.4250675 0.23666632 -0.75303376 1.4813344 -1.2777557
0.41433042 1.9550915 0.70171636 1.5828605 1.1956697 -0.67202383 0.079445384 3.4395375
1.9289272 4.080114 0.16670552 0.7736421 -0.6521551 -2.9243615 0.8135551 -0.43311372
-0.19284213 -1.3096254 -2.541152 -1.5557237 -0.8118547 -3.7111828 0.19403188 1.5228797
0.80135053 -2.501437 -0.8941131 1.5085162 -2.2714458 -0.9266888 1.6085079 1.0610489
1.0816624 -1.4730103 -2.3468595 2.4445376 -1.362482 -1.1669737 1.0757451 -0.04022419
-0.6954961 2.3991685 1.1121807 -1.6813492 -0.99153626 0.4821253 2.750756 -1.3560405
2.294359 1.4460627 -1.9927062 -1.3204488 -0.5945687 1.238721 -0.704266 -2.350879
0.9647478 -0.87534064 -1.8393493 1.1516484 2.2914014 -0.45919195 0.09978977 -2.7185686
0.6276917 -0.31712055 1.0000948 1.1028382 -1.5502062 -1.9236281 -0.11644848 -0.07048796
-0.32775888 -1.9881475 0.82719195 0.6611987 -1.6605135 0.5486033 -0.13341913 -0.4000397
-0.58455366 -1.8800064 -0.36004108 1.8018534 0.88831896 1.391727 -3.2015321 -0.9739591
1.336996 0.81510013 1.2392104 2.5973456 3.5826416 2.4537592 -0.9073528 -0.22274223
0.38394952 1.3033341 1.75798 -2.7839391 2.0873954 -2.4782336 2.7396176 -0.065284535
0.8791973 0.72723013 -2.0372539 1.8311388 1.8596305 -1.3254545 0.6611439 1.4143867
2.506116 -0.5210686 -0.53042895 0.7919744 -2.312836 0.6146555 1.2169662 0.8134283
-0.39239928 1.5264454 -1.651176 -0.9693953 -0.73457634 -2.6884937 -0.5870798 -1.2073764
-0.55479074 1.8379222 0.7269497 -0.10973776 -2.357875 -0.1723583 -2.9199486 -1.011525
-3.2030165 -1.5374411 -0.8305659 0.96304214 -0.54740995 1.9361081 -0.8179165 -2.6579857
0.81194264 0.16301244 1.5574985 -1.5373785 1.00086 0.9379691 0.4542794 0.57776994
1.8114905 2.8698547 -1.3204917 0.76139313 1.4770055 -1.9420443 -1.168437 0.016268995
2.17508 -1.5187073 1.5824518 2.5164454 0.6136572 -0.2985421 -1.232856 -1.3921947
-1.3963832 0.28169152 -2.02194 1.8207523 0.48889482 1.6768687 -2.0370874 -0.93729967
0.5082384 -1.3929439 -0.41057706 2.030767 -0.7476048 0.15230969 -0.20443195 -0.07315
0.21275549 -2.538006 -0.7638874 2.0107934 2.0525281 -2.395727 -2.0686967 0.24499406
-2.1210084 -1.695972 1.3809507 1.3278148 -0.791625 -2.5208855 -1.9661498 -1.1934758
1.0799451 -1.5068524 0.59304374 3.5738807 -0.3486889 -1.7534245 3.3435347 -0.25398734
-1.7546726 -0.38501415 -0.8160134 0.34226215 -0.03711914 -1.3118393 -1.7160342 -2.76274
-0.22093494 -1.4557519 -0.49648836 -1.7650309 2.2577882 0.51643306 -1.7451739 -1.2227198
-0.043279722 0.5574034 -0.7156032 0.36031598 0.12734851 -1.3242036 2.9579158 2.462356
2.015666 1.2677175 0.43654153 -0.6778136 0.46191403 -0.9519374 -0.34412715 2.5964408
