analysis/data/embeddings/cleaned_300_pku-safe-30k-test-Mistral-7B-v0.2_no_ann.json_clustered/cleaned_300_pku-safe-30k-test-Mistral-7B-v0.2_no_ann.json_clustered_relation_embeddings.pt (torch, 353260 bytes, 1 tensors)

weight f4 [1369, 64]
0	0x3ff0e5dc	1.8820148
1	0x3f825ce1	1.0184594
2	0xc0097b01	-2.1481326
3	0x3f0714ca	0.52766097
4	0x3f85dd73	1.0458206
5	0x3fdc94de	1.7232931
6	0xbd674de7	-0.056470778
7	0xbfa1f771	-1.2653638
8	0x400e406f	2.2226827
9	0xbf8fbee8	-1.1230135
10	0xc057e81b	-3.3735416
11	0xc01086a3	-2.2582176
12	0xbfbc858b	-1.4728254
13	0xbf059a2b	-0.52188367
14	0xbfcade3a	-1.5849068
15	0xbfc5882e	-1.5432184
16	0xbf01ac59	-0.50653607
17	0xc00ecf9f	-2.2314222
18	0x3d0ac1b1	0.033876125
19	0x402544f9	2.5823348
20	0x3f012317	0.5044417
21	0x3f861e61	1.0478021
22	0x3d588492	0.052860804
23	0x3f4ef731	0.80845934
24	0xbf8bc2b8	-1.0918798
25	0xbf2efe3a	-0.6835667
26	0x3ed1333f	0.4085941
27	0xbe4d1eb5	-0.20031245
28	0xbf98be9b	-1.1933168
29	0xbee932c3	-0.4554654
30	0x3e98fcc2	0.2988034
31	0x3fe510db	1.7895769
32	0x3fe16468	1.7608767
33	0xbf95945e	-1.1685903
34	0xbe0f6fd1	-0.14007498
35	0xbf75bca2	-0.95990956
36	0x3f90f5a1	1.132496
37	0x3cf8ad52	0.030356083
38	0xc00353b5	-2.051984
39	0xbff164f8	-1.8858938
40	0xbc396a36	-0.011316827
41	0xbfb85fa8	-1.4404192
42	0xbf4eee22	-0.8083211
43	0x402240f6	2.535215
44	0x3ebf769a	0.37395173
45	0x3f3685c7	0.7129788
46	0xbfce0719	-1.6095916
47	0x3f9fd60b	1.2487196
48	0xbfa1fbdb	-1.2654985
49	0x405121b1	3.2676814
50	0xbf3a8fdb	-0.72875756
51	0xbe5fd8ae	-0.2186
52	0xbf16a470	-0.5884466
53	0x3faf0de1	1.367611
54	0xbf9c574a	-1.2214139
55	0xbf9cdcfe	-1.2254941
56	0xbc88ff58	-0.01672332
57	0x4007abfb	2.1198719
58	0xbf5806de	-0.8438548
59	0x3ecc1489	0.39859417
60	0x3fec81df	1.8477134
61	0x3ec736b4	0.38908923
62	0xbf92bed6	-1.1464489
63	0x3f344046	0.70410573
64	0x3f50e9bc	0.8160665
65	0xbeada751	-0.33916715
66	0x3fca9c65	1.5828978
67	0xbfe5a83e	-1.7941968
68	0x3fa387e2	1.2775843
69	0xc0837995	-4.1085916
70	0xbfa48e43	-1.2855915
71	0xbfe60b64	-1.7972226
72	0xbf85f001	-1.0463868
73	0xc0044dc8	-2.0672474
74	0xbf734c3d	-0.95038205
75	0x405a26a5	3.4086087
76	0xbfe1d023	-1.7641643
77	0x3f31ba9a	0.69425356
78	0x3fd65f1a	1.6747773
79	0xc0466eac	-3.1005049
80	0xbf36c8a5	-0.7139991
81	0x3d80a23a	0.06280942
82	0x3f575091	0.8410731
83	0xc0578ab5	-3.367841
84	0xbf59c506	-0.8506626
85	0x3fcc1284	1.594315
86	0x3fb854a0	1.4400826
87	0xbeb8ca63	-0.3609191
88	0x3e4b7c43	0.19871621
89	0x3fe78b3d	1.8089367
90	0xc00055c3	-2.0052345
91	0xc01c59d7	-2.4429834
92	0xc036414f	-2.8477361
93	0x3f55dc77	0.8353953
94	0x403963d6	2.8967185
95	0x3e2f2af2	0.17106226
96	0x3f4cfac8	0.8007016
97	0x3f473ff5	0.77831966
98	0xbeca51cf	-0.3951554
99	0xc010206a	-2.2519784
100	0x3f63cacc	0.8898132
101	0x3e56c33a	0.2097291
102	0xbf0621d4	-0.5239537
103	0xbca7173c	-0.020396821
104	0xbf917bb5	-1.1365877
105	0xbf7ab727	-0.9793572
106	0xbe5f797c	-0.21823686
107	0x4006a752	2.1039624
108	0xbf07e7dd	-0.5308817
109	0xbfd83b7c	-1.6893153
110	0xc0051349	-2.079302
111	0x3fc09151	1.5044347
112	0x3fcd0424	1.6016889
113	0xbfcd054b	-1.601724
114	0x3f0b8ac9	0.54508644
115	0x40369a00	2.8531494
116	0xbf4d80dc	-0.8027475
117	0x3f86f7b3	1.0544342
118	0xbf5b583e	-0.8568152
119	0xbfc3fe02	-1.5311892
120	0x3fd990f2	1.6997359
121	0xc05fff03	-3.4999397
122	0xbdcf42fc	-0.10120198
123	0x3ee89a48	0.45430207
124	0x3fe0c0db	1.7558855
125	0x3f10b386	0.5652393
126	0x3febd250	1.8423557
127	0xbf63d441	-0.8899575
128	0x3ea91d75	0.33030286
129	0xc066ef14	-3.6083422
130	0xbff36e83	-1.90181
131	0xc078a2be	-3.884933
132	0x3e1da48d	0.15394802
133	0xbe5fcdc9	-0.21855845
134	0xbfbd9c2f	-1.4813288
135	0xbf224546	-0.6338695
136	0xbfe8c7aa	-1.8185933
137	0xc0176332	-2.3654294
138	0x3fade6d3	1.3586067
139	0xbf7298e5	-0.9476455
140	0x3fb65d7a	1.4247277
141	0x3f55d30e	0.8352517
142	0x4032d5ee	2.7943072
143	0xc02fa721	-2.7445757
144	0x3f94d0f1	1.1626264
145	0x3f1ea7f3	0.6197502
146	0xc0af8f5e	-5.486251
147	0x3fd40b20	1.6565895
148	0x3f5d90b1	0.86548907
149	0xc05f5f2f	-3.4901845
150	0xbdc950f2	-0.09829892
151	0xbf59d9e1	-0.8509808
152	0xbf85ed4a	-1.046304
153	0xc02cdbc8	-2.7009144
154	0x3f8b670e	1.0890825
155	0xbfb8097c	-1.4377894
156	0xbf1d9d55	-0.61568195
157	0x3f6ead66	0.93233335
158	0x3f53f3b9	0.82793766
159	0x40583ede	3.378837
160	0xc0620183	-3.5313423
161	0x400c2c2c	2.190196
162	0x3f2dc1dd	0.67873937
163	0x3e4091f4	0.18805677
164	0x405c47b5	3.4418766
165	0x3d3349a2	0.043771394
166	0xbf8a8fa5	-1.0825087
167	0xc02d40db	-2.7070835
168	0x4031482e	2.7700305
169	0x4089b2dd	4.303084
170	0xbeb4fd50	-0.35349512
171	0x40544108	3.3164692
172	0x3f02b3d0	0.5105562
173	0xc05a0947	-3.4068162
174	0xc07a305b	-3.9092014
175	0xbffd62b4	-1.9795747
176	0x3f2029ee	0.6256398
177	0xc071199b	-3.7671878
178	0x400ef971	2.2339747
179	0xbfe48798	-1.785388
180	0xbffb888a	-1.9651043
181	0xbebc7a07	-0.3681185
182	0xbfd47ed7	-1.6601208
183	0x3f38884b	0.72082967
184	0x4032977f	2.7904966
185	0xc01c3afc	-2.4411001
186	0xbfafdafa	-1.3738701
187	0xbf452195	-0.7700437
188	0xbefa8a4a	-0.4893363
189	0xc0031394	-2.04807
190	0x3db9ec79	0.09078307
191	0xc0933de3	-4.6013045
192	0xc0279a9b	-2.6188114
193	0xc0329f76	-2.7909827
194	0x3fb3e4fc	1.4054255
195	0x3ffd8c8a	1.9808514
196	0x3eca7a85	0.395466
197	0xbfc8f11e	-1.5698583
198	0x3fbd3d69	1.4784366
199	0x3f5ba84d	0.8580368
200	0x4034f529	2.8274634
201	0x4030dd8c	2.7635221
202	0x406017c6	3.501451
203	0xbfdbef82	-1.7182467
204	0x3f342971	0.70375735
205	0x3f5dc63d	0.8663061
206	0x3f33c4c0	0.7022209
207	0xbfdf0f57	-1.7426556
208	0xbff64dd0	-1.9242496
209	0xbf1b50b5	-0.60670024
210	0xbfc52a63	-1.540356
211	0xbdb901c0	-0.09033537
212	0xbe6da600	-0.23207855
213	0xbe7f0d31	-0.24907376
214	0xbf1b3c4b	-0.60638875
215	0x400dfc60	2.2185287
216	0xbf57aa53	-0.8424427
217	0x3ff07b46	1.878762
218	0xc01b58d6	-2.427297
219	0xc084cb6b	-4.1498313
220	0x4023c64c	2.558978
221	0x3e9dcea0	0.30821705
222	0x3f9ab55d	1.2086598
223	0x40606709	3.5062888
224	0xbf4ccbba	-0.7999836
225	0x40833e9a	4.101392
226	0xbcefb82b	-0.029262623
227	0xbfa87743	-1.3161396
228	0x3e204ac6	0.15653524
229	0x4081bb61	4.0541234
230	0xbf1651ab	-0.58718365
231	0x3f7b662e	0.9820279
232	0xc042970f	-3.04047
233	0xc005e1a7	-2.0918977
234	0xc06a60bd	-3.6621544
235	0x3fc8907b	1.5669092
236	0x3f612e62	0.879614
237	0xc0512fd1	-3.2685435
238	0x3eae3253	0.3402277
239	0x40316cae	2.7722583
240	0x3f64cb99	0.89373165
241	0x408ed4a2	4.463456
242	0xbf7dd628	-0.991549
243	0x3f810294	1.0078912
244	0x404c2336	3.189649
245	0x3ec0737f	0.37588117
246	0x3f1d0fb3	0.6135208
247	0xc03b231d	-2.9240181
248	0x3fd7537e	1.6822355
249	0xbec03848	-0.3754294
250	0xc038f159	-2.8897307
251	0x3eb83edd	0.3598546
252	0x400cdfad	2.201152
253	0x4061ae79	3.526274
254	0x3fd8853e	1.6915662
255	0x3f36bd52	0.7138263
