analysis/test_dir/test_data/embeddings/cleaned_300_pku-safe-30k-test-gemma-2-9b-it/cleaned_300_pku-safe-30k-test-gemma-2-9b-it_entity_embeddings.pt (torch, 720810 bytes, 1 tensors)

weight f4 [2806, 64]
000000 c1 c0 82 bf 73 ce 7b c0 a4 93 ee bf 8f 49 5a 3f
       -1.0215074 -3.9344757 -1.8638806 0.8526849
000010 a7 6a 09 40 01 ba 36 3f 2f d7 09 bf 89 80 20 40
       2.1471345 0.7137757 -0.5384397 2.5078452
000020 ff 19 8e 3f e0 e5 01 40 00 a6 28 3f 4e 20 b0 3f
       1.1101683 2.0296555 0.65878296 1.3759859
000030 78 a7 aa bd ae 7b 09 40 56 77 23 bf 66 ec 20 40
       -0.083327234 2.1481738 -0.6385397 2.5144286
000040 bb 0c 31 c0 66 3e ec bf 72 39 4d bf 71 64 3e 40
       -2.766402 -1.8456542 -0.8016578 2.9748805
000050 ea bc 84 bf 4b b1 20 bf d4 c3 df 3f 94 fd 83 bf
       -1.0370152 -0.6277053 1.7481637 -1.0311761
000060 13 8e db 3c 0f af fa be 55 05 76 bd 63 77 92 bd
       0.026801145 -0.48961684 -0.06006368 -0.071516775
000070 8d 2f c0 bf 22 a2 ce 3e 10 fe 7e 3d ac 25 22 bf
       -1.5014511 0.40358073 0.06225401 -0.6333873
000080 2c bc 11 3f 77 09 01 3f 8c 98 2d c0 5b 35 1e c0
       0.5692775 0.5040507 -2.7124357 -2.4720066
000090 a6 65 83 3f 41 23 a3 bf 7c 0b 07 40 02 ce 88 c0
       1.0265396 -1.2745134 2.110076 -4.2751474
0000a0 cd 84 13 c0 10 e9 46 c0 8f c5 e8 bf df 4a 2c c0
       -2.3049805 -3.107975 -1.818529 -2.6920698
0000b0 84 e6 82 3f d9 9b e5 bf e9 5b e7 3f c3 22 37 bf
       1.0226598 -1.7938186 1.8074924 -0.7153742
0000c0 da f6 26 bf 2c 1b 97 be e4 cf 76 3f f6 91 83 3f
       -0.65220416 -0.29512918 0.96410966 1.0278919
0000d0 c3 91 e3 3f 59 f4 97 bf ea bf 85 3e 1e 69 0b bf
       1.7778858 -1.1871444 0.2612298 -0.5445727
0000e0 ec ea 9c be 0b a0 ab 3f 66 38 f7 bd c1 01 5b be
       -0.3064798 1.3408216 -0.12071304 -0.21387388
0000f0 52 7a 3a c0 dc 53 83 bf d7 e8 b3 3f eb eb 75 3f
       -2.9137158 -1.0259967 1.4055432 0.9606311
000100 31 7a 89 bf bd 80 16 c0 ce 7a c4 be 57 8c 83 bd
       -1.0740415 -2.3516076 -0.38374943 -0.06423252
000110 fc 2e ca 3f ec 92 02 be 1d fc 45 3f d4 13 61 be
       1.5795588 -0.12751359 0.7733782 -0.2198022
000120 26 f9 d9 3f 39 87 e7 bf f4 66 d3 be 5d 28 8c 3f
       1.7029159 -1.8088142 -0.41289485 1.0949818
000130 b1 42 b0 bf c9 f8 2a 40 6b 34 84 3f e7 45 fe bf
       -1.3770353 2.6714346 1.0328497 -1.9865083
000140 85 7f 1c 40 87 5c c5 bc 89 87 ab bf 31 4c b5 3f
       2.4452832 -0.024091972 -1.3400737 1.4163877
000150 9b a6 e7 3e 55 aa 72 bf 1d 72 60 c0 da c0 ad 3f
       0.45244297 -0.94791156 -3.506965 1.3574479
000160 cf 5c 25 c0 55 6c 06 bb 8b 3c 00 3f 9b 01 80 bf
       -2.5837896 -0.0020511348 0.5009238 -1.000049
000170 a4 24 74 3f 4d 20 a4 3f aa 71 ca 3f 9e 74 84 3b
       0.9536841 1.2822357 1.5815938 0.004042222
000180 73 5a f7 3f 91 4f d9 bf 8d dc 41 40 69 b6 14 bf
       1.9324478 -1.6977407 3.0290864 -0.58090836
000190 0f dd 1e 40 e9 a0 c9 bf a1 d9 f2 bd 74 59 58 3f
       2.4822423 -1.5752231 -0.11857916 0.84511495
0001a0 6b 92 20 c0 eb a2 2a c0 7d d8 9b 3f 6a 2a 0e 3f
       -2.5089366 -2.6661937 1.2175442 0.5553347
0001b0 de 65 7c 3f 4e f5 d5 3f 9c 3f 05 c0 d1 24 d8 be
       0.98592937 1.6715486 -2.0820074 -0.4221559
0001c0 d7 d0 1d 3f 35 df b3 3f 21 08 7d bf a1 ac aa 3e
       0.6164679 1.4052492 -0.9884053 0.3333483
0001d0 c5 9a 73 40 26 e6 ff 3f ef 0b fc bf 7c ab 33 c0
       3.8063214 1.9992111 -1.9691142 -2.8073416
0001e0 75 7a b0 3f 59 97 63 bf a4 39 d9 3e b7 50 6a 3f
       1.3787371 -0.88902813 0.4242679 0.9152941
0001f0 ae ff 4b bd 67 50 21 bf da e9 84 bf c7 58 19 3f
       -0.049804382 -0.6301331 -1.0383866 0.5990109
000200 8b e5 77 3e e9 1c 9a be 14 6d 23 c0 b9 a2 18 3f
       0.24208657 -0.30100182 -2.5535326 0.59623295
000210 86 27 31 bf e4 0c 18 3e 94 0c fa 3e fa a8 4e bf
       -0.6920093 0.14848667 0.4883772 -0.8072659
000220 1b 61 cd 3f f4 dd 59 bf 3b a8 12 3e da 94 06 c0
       1.6045259 -0.851043 0.14321987 -2.1028352
000230 8e b6 67 c0 40 20 a3 bf fa 8e 9b bf 31 a4 96 3f
       -3.6205173 -1.2744217 -1.2153008 1.1768857
000240 58 f7 c4 bf b1 cb 07 3e 00 20 52 3e fb dc 46 bf
       -1.5387983 0.13261296 0.2052002 -0.7768094
000250 a9 b7 2a 40 15 b2 fa bf 8e 12 f8 3f 13 06 d7 bf
       2.6674597 -1.9585596 1.9380662 -1.6798729
000260 cd 7d fb 3f 04 8e d9 bf 19 ba 07 bf 08 71 c3 3e
       1.9647766 -1.6996465 -0.5301834 0.38172174
000270 77 a7 ca bf f7 a0 25 bf 4d e3 16 40 c0 2a 70 bf
       -1.5832356 -0.6469874 2.3576233 -0.9381523
000280 db e2 02 40 02 be 0a bf 5b 1c 1e bf cb fd f9 3e
       2.0450962 -0.5419618 -0.61762017 0.4882644
000290 2d 58 86 3f 9a 45 02 40 63 03 be 3e 91 88 10 40
       1.0495659 2.0354981 0.3711196 2.2583354
0002a0 43 6f 4a 3e 9f 39 99 bf 6f 80 d7 3f 82 7a 14 40
       0.19769005 -1.197071 1.683607 2.3199773
0002b0 cb 27 7a bf 88 f7 18 bf 20 ef 2b 40 9e 80 f2 3f
       -0.9771697 -0.597527 2.68647 1.8945501
0002c0 5d 4d af be 7c 34 65 3f d8 0d 97 bf ff c1 73 bf
       -0.3423871 0.8953321 -1.18011 -0.9521789
0002d0 39 97 9d 3f b5 0f b8 be a9 d6 a4 bf 0c 72 a5 3f
       1.2311774 -0.35949484 -1.2878009 1.2925429
0002e0 b5 67 cd bf 59 50 62 be 09 c3 7c 3f 90 77 dd 3f
       -1.6047274 -0.22100963 0.987351 1.7302113
0002f0 50 1e f4 bf 01 d1 32 c0 52 08 6c 3f ae f1 ae bf
       -1.9071751 -2.7940066 0.92200196 -1.3667505
000300 d0 07 42 be f2 e6 3c c0 6d 55 26 40 e9 cb cc bf
       -0.18948293 -2.9515958 2.598964 -1.5999728
000310 fe b8 05 3f d0 f4 c4 bf fa d7 df bf 60 db 13 c0
       0.522354 -1.5387211 -1.7487786 -2.3102646
000320 77 63 69 3f c6 f5 b5 bf 35 18 9b 3e 78 44 96 3e
       0.91167396 -1.4215629 0.30291906 0.29349113
000330 26 06 81 be f2 ec 11 c0 ab 0b e6 3e 3f f5 af bf
       -0.25200003 -2.280087 0.44930777 -1.3746718
000340 c9 71 21 c0 f4 ae 89 bf 21 df 05 bf 6a 7d 13 bf
       -2.52257 -1.0756516 -0.5229359 -0.5761324
000350 b4 e2 bb 3f c2 e6 8b bf 0a 13 e8 be 2c 7c 51 bf
       1.4678559 -1.0929797 -0.45327026 -0.81830096
000360 56 10 98 3f 21 34 81 3f 19 98 a1 3f 07 4a 47 bf
       1.1879985 1.0094033 1.2624542 -0.7784733
000370 a2 b5 0c c0 e7 5d 8a 3f fa 17 7b 3f 59 a2 8d 3e
       -2.198586 1.0809907 0.9808346 0.27662924
000380 49 dd af 3f 30 cb 26 3f 1a a5 4e bf 3c f8 97 3e
       1.3739406 0.6515379 -0.80720675 0.29681575
000390 91 fd b9 3f cf e1 b3 bf 02 45 fe bf f9 86 a3 3f
       1.4530507 -1.4053286 -1.986481 1.2775565
0003a0 c1 28 81 bf 85 74 52 3f 97 fd 87 bd 34 96 83 bd
       -1.0090562 0.82209045 -0.06640165 -0.06425133
0003b0 c8 b1 b4 3f 60 30 61 3f d2 62 47 c0 1d 16 f5 be
       1.4116755 0.8796444 -3.1154065 -0.47868434
0003c0 7e db f8 bf 88 16 08 c0 d2 29 d4 be cf 54 d4 bf
       -1.9441984 -2.1263752 -0.41438156 -1.6588382
0003d0 0a b6 a9 bf d2 39 12 3f ee 92 a3 be 26 26 1e c0
       -1.3258679 0.57119477 -0.31948036 -2.4710784
0003e0 91 9a bb bc 6e 71 10 3f 4d 23 31 3d 4b 85 af 3f
       -0.022900851 0.5642308 0.043246556 1.3712553
0003f0 bf ba a6 bf b2 fe 02 c0 08 36 ef ba 0f ce 67 3f
       -1.302574 -2.0467954 -0.0018250355 0.90548795
