analysis/test_dir/test_data/embeddings/cleaned_300_pku-safe-30k-test-gemma-2-9b-it/cleaned_300_pku-safe-30k-test-gemma-2-9b-it_relation_embeddings.pt (torch, 305332 bytes, 1 tensors)

weight f4 [1183, 64]
-0.17025258 -2.7282917 1.7739995 -0.24994731 -1.7776012 0.2253437 0.0018416225 1.1055645
-0.32088676 -1.3102676 0.4812154 3.2149465 0.83446056 -1.3261861 -1.517367 3.0027504
1.6788198 0.04296458 0.6215819 -0.05193963 -2.1401768 -0.3655029 0.49136463 -1.0568448
-0.5582653 -0.3159951 0.5525098 0.063520156 -0.6101834 -0.85258925 -2.3785894 1.1515018
-0.7917799 0.16221549 -0.50186574 -0.118753165 2.2359812 -2.212841 -0.26624018 0.016162213
-0.5065424 -0.25000533 -0.19729897 -0.918218 -0.911688 -0.062412515 2.0292194 0.5587832
0.7636489 -1.273226 -0.24255253 -0.24251477 -0.30844122 1.9004256 1.7439888 -1.5117255
-0.4941567 -2.8780642 -0.76807016 0.8996774 -1.2418469 0.40550515 0.1002724 1.1120036
-0.2591733 1.931065 0.20023303 -1.018582 2.0394323 1.4906409 0.3382686 1.6482577
-0.81193763 -1.4149182 -2.0305095 -1.5299374 -0.33735055 -0.5677846 -2.3064675 0.03599973
-0.46291906 0.013564258 3.138212 -1.3769248 -1.6725631 1.4663416 0.64882267 -0.13357133
1.9316728 -2.0507295 1.9024394 0.4196952 0.084551156 1.1743263 -1.1849953 1.8180965
-0.15790252 4.350675 -0.78426194 -0.25484926 0.6859289 -0.08022304 0.35382077 0.23660877
-0.28630102 1.2155164 -1.3070775 0.0791804 0.5383924 0.5850141 0.84956264 0.24729383
2.3306985 -0.047188923 -0.8913843 0.11067382 -0.563088 1.2088137 -0.6986242 -1.7776909
-0.51774704 1.1512372 -0.9571729 -1.100201 -1.3089774 0.93585086 -0.90812594 0.16160312
1.379499 0.79812163 0.15009634 3.6953409 0.13662858 1.5247 -2.1905422 -0.35592207
-1.051765 -1.7146958 -0.08108384 1.343069 1.1146854 0.8561461 0.86004865 0.93374145
0.09915049 -0.7229654 -1.4600117 -1.1268733 0.6888261 0.85001934 -0.91466457 1.6125426
0.44209415 0.91254556 -0.40356588 0.85677403 -1.1814424 -0.11211201 -0.5622192 -1.660219
0.2251026 -1.0256121 -1.9848865 1.0563837 0.68122274 0.11934656 1.0176158 -0.43488973
-1.2916754 -1.9088491 -1.8704877 0.68632126 -1.7476487 -0.7890751 -0.64939654 0.058547307
-0.9157544 0.108941436 -1.124557 1.4557599 1.0053079 0.40494385 0.42907897 -0.120780796
-0.2644687 0.20532648 1.6519632 -0.0010193842 2.098685 0.34387225 -0.7795705 1.0251592
-1.6667056 -2.958455 -0.9033883 -2.0269873 -2.124367 0.8985892 0.28848997 -0.17165786
-2.4842386 0.40117028 -1.8455762 -0.22109018 0.46822098 3.110578 -0.5533027 -1.7907224
1.1280756 -0.80409765 -0.7411553 1.6148714 -0.84006286 -5.231967 0.0037510118 0.5034614
-1.4157072 1.6433495 4.048907 0.077784166 -2.5902286 1.0619165 2.0138347 0.92302984
2.4898825 2.318043 -0.85279256 -2.9271593 2.1008346 0.7593498 3.1357284 -1.1948901
-3.37217 0.70686287 -1.5587802 0.97217405 -2.4351385 -0.74412966 -0.019528907 0.10058697
0.16098072 -0.3689776 2.0937257 -2.850522 -0.2812164 -1.4668587 -1.5285563 -1.4643152
-0.8880087 0.8786437 -1.3458134 0.6258948 0.23254111 -0.18036468 -3.4496577 0.6857759
00000000: b156 2ebe 559c 2ec0 6a12 e33f 30f2 7fbe
00000010: 7088 e3bf 80c0 663e 9962 f13a 2383 8d3f
00000020: 454b a4be d9b6 a7bf dd61 f63e afc1 4d40
00000030: 359f 553f 77c0 a9bf 1539 c2bf 102d 4040
00000040: 91e3 d63f a1fb 2f3d fe1f 1f3f a6be 54bd
00000050: a8f8 08c0 3223 bbbe 2594 fb3e b146 87bf
00000060: 7aea 0ebf 1cca a1be 4871 0d3f db16 823d
00000070: fb34 1cbf 4a43 5abf cf3a 18c0 6964 933f
00000080: 16b2 4abf d11b 263e 467a 00bf dc34 f3bd
00000090: 511a 0f40 309f 0dc0 a250 88be 9e66 843c
000000a0: c3ac 01bf b300 80be be08 4abe 5610 6bbf
000000b0: 6364 69bf 44a4 7fbd bbde 0140 6a0c 0f3f
000000c0: 7f7e 433f 12f9 a2bf b15f 78be cb55 78be
000000d0: 02ec 9dbe 2541 f33f 063b df3f 3980 c1bf
000000e0: 1b02 fdbe 3432 38c0 3fa0 44bf 4251 663f
000000f0: d7f4 9ebf 5f9e cf3e 9e5b cd3d 2256 8e3f
00000100: 5db2 84be 232d f73f e309 4d3e e560 82bf
00000110: 0f86 0240 52cd be3f 8b31 ad3e 1cfa d23f
00000120: 25db 4fbf 0a1c b5bf def3 01c0 fdd4 c3bf
00000130: 36b9 acbe 555a 11bf 2a9d 13c0 7474 133d
00000140: ba03 edbe 9f3c 5e3c 77d8 4840 123f b0bf
00000150: 8c16 d6bf 15b1 bb3f 3e19 263f ecc6 08be
00000160: 0e41 f73f 273f 03c0 2283 f33f 4ae2 d63e
00000170: 2829 ad3d 5350 963f edad 97bf 63b7 e83f
00000180: 33b1 21be bb38 8b40 64c5 48bf 9a7b 82be
00000190: 0999 2f3f fa4b a4bd ff27 b53e 9249 723e
000001a0: 0c96 92be 0b96 9b3f 514e a7bf 5529 a23d
000001b0: 16d4 093f 7cc3 153f f07c 593f 983a 7d3e
000001c0: 2a2a 1540 2c49 41bd c331 64bf f5a8 e23d
000001d0: 8926 10bf 68ba 9a3f 09d9 32bf 608b e3bf
000001e0: 128b 04bf be5b 933f 4809 75bf 63d3 8cbf
000001f0: 928c a7bf ec93 6f3f f17a 68bf 4a7b 253e
00000200: 6c93 b03f b351 4c3f dbb2 193e 7780 6c40
00000210: 5de8 0b3e 5f29 c33f d831 0cc0 6b3b b6be
00000220: 3ca0 86bf 277b dbbf 490f a6bd afe9 ab3f
00000230: 03ae 8e3f 642c 5b3f 262c 5c3f ae09 6f3f
00000240: 690f cb3d 4314 39bf aae1 babf 623d 90bf
00000250: e856 303f de9a 593f 7527 6abf cc67 ce3f
00000260: 2a5a e23e 969c 693f 30a0 cebe 8b55 5b3f
00000270: 8139 97bf fb9a e5bd 99ed 0fbf 0e82 d4bf
00000280: 4c81 663e 4247 83bf c310 febf 9537 873f
00000290: 9d64 2e3f f86b f43d 3c41 823f dea9 debe
000002a0: 9f55 a5bf 2b55 f4bf 246c efbf c0b2 2f3f
000002b0: f4b2 dfbf d300 4abf da3e 26bf 4dcf 6f3d
000002c0: e16e 6abf b01c df3d 7cf1 8fbf 5756 ba3f
000002d0: eead 803f cd54 cf3e 3db0 db3e ec5b f7bd
000002e0: 7168 87be 1b41 523e 8873 d33f dc9c 85ba
000002f0: db50 0640 0610 b03e ef91 47bf 6b38 833f
00000300: 9c56 d5bf 5457 3dc0 7544 67bf 29ba 01c0
00000310: a1f5 07c0 f109 663f f5b4 933e 14c7 2fbe
00000320: c4fd 1ec0 3166 cd3e d73b ecbf 7765 62be
00000330: a9ba ef3e b613 4740 3fa5 0dbf 6436 e5bf
00000340: c864 903f 58d9 4dbf 5bbc 3dbf 1bb4 ce3f
00000350: 5c0e 57bf 466c a7c0 89d3 753b d9e2 003f
00000360: e535 b5bf 4759 d23f a590 8140 4e4d 9f3d
00000370: 4ec6 25c0 e1ec 873f abe2 0040 af4b 6c3f
00000380: 3c5a 1f40 d15a 1440 9d50 5abf 9456 3bc0
00000390: 1374 0640 c064 423f c6af 4840 29f2 98bf
000003a0: a2d1 57c0 f7f4 343f 1c86 c7bf 66e0 783f
000003b0: 4fd9 1bc0 487f 3ebf 16fb 9fbc 8b00 ce3d
000003c0: 21d8 243e a2ea bcbe 9aff 0540 f46e 36c0
000003d0: 99fb 8fbe 07c2 bbbf bca7 c3bf ae6e bbbf
000003e0: 8a54 63bf cbee 603f 9d43 acbf a43a 203f
000003f0: 421f 6e3e 85b1 38be 31c7 5cc0 028f 2f3f
